saved_model_schema_version: 1
meta_graphs {
  meta_info_def {
    stripped_op_list {
      op {
        name: "AddV2"
        input_arg {
          name: "x"
          type_attr: "T"
        }
        input_arg {
          name: "y"
          type_attr: "T"
        }
        output_arg {
          name: "z"
          type_attr: "T"
        }
        attr {
          name: "T"
          type: "type"
          allowed_values {
            list {
              type: DT_BFLOAT16
              type: DT_HALF
              type: DT_FLOAT
              type: DT_DOUBLE
              type: DT_UINT8
              type: DT_UINT16
              type: DT_UINT32
              type: DT_UINT64
              type: DT_INT8
              type: DT_INT16
              type: DT_INT32
              type: DT_INT64
              type: DT_COMPLEX64
              type: DT_COMPLEX128
            }
          }
        }
        is_aggregate: true
        is_commutative: true
      }
      op {
        name: "AssignVariableOp"
        input_arg {
          name: "resource"
          type: DT_RESOURCE
        }
        input_arg {
          name: "value"
          type_attr: "dtype"
        }
        attr {
          name: "dtype"
          type: "type"
        }
        is_stateful: true
      }
      op {
        name: "AvgPool"
        input_arg {
          name: "value"
          type_attr: "T"
        }
        output_arg {
          name: "output"
          type_attr: "T"
        }
        attr {
          name: "ksize"
          type: "list(int)"
          has_minimum: true
          minimum: 4
        }
        attr {
          name: "strides"
          type: "list(int)"
          has_minimum: true
          minimum: 4
        }
        attr {
          name: "padding"
          type: "string"
          allowed_values {
            list {
              s: "SAME"
              s: "VALID"
            }
          }
        }
        attr {
          name: "data_format"
          type: "string"
          default_value {
            s: "NHWC"
          }
          allowed_values {
            list {
              s: "NHWC"
              s: "NCHW"
            }
          }
        }
        attr {
          name: "T"
          type: "type"
          allowed_values {
            list {
              type: DT_HALF
              type: DT_BFLOAT16
              type: DT_FLOAT
              type: DT_DOUBLE
            }
          }
        }
      }
      op {
        name: "BiasAdd"
        input_arg {
          name: "value"
          type_attr: "T"
        }
        input_arg {
          name: "bias"
          type_attr: "T"
        }
        output_arg {
          name: "output"
          type_attr: "T"
        }
        attr {
          name: "T"
          type: "type"
          allowed_values {
            list {
              type: DT_FLOAT
              type: DT_DOUBLE
              type: DT_INT32
              type: DT_UINT8
              type: DT_INT16
              type: DT_INT8
              type: DT_COMPLEX64
              type: DT_INT64
              type: DT_QINT8
              type: DT_QUINT8
              type: DT_QINT32
              type: DT_BFLOAT16
              type: DT_UINT16
              type: DT_COMPLEX128
              type: DT_HALF
              type: DT_UINT32
              type: DT_UINT64
            }
          }
        }
        attr {
          name: "data_format"
          type: "string"
          default_value {
            s: "NHWC"
          }
          allowed_values {
            list {
              s: "NHWC"
              s: "NCHW"
            }
          }
        }
      }
      op {
        name: "Const"
        output_arg {
          name: "output"
          type_attr: "dtype"
        }
        attr {
          name: "value"
          type: "tensor"
        }
        attr {
          name: "dtype"
          type: "type"
        }
      }
      op {
        name: "Conv2D"
        input_arg {
          name: "input"
          type_attr: "T"
        }
        input_arg {
          name: "filter"
          type_attr: "T"
        }
        output_arg {
          name: "output"
          type_attr: "T"
        }
        attr {
          name: "T"
          type: "type"
          allowed_values {
            list {
              type: DT_HALF
              type: DT_BFLOAT16
              type: DT_FLOAT
              type: DT_DOUBLE
              type: DT_INT32
            }
          }
        }
        attr {
          name: "strides"
          type: "list(int)"
        }
        attr {
          name: "use_cudnn_on_gpu"
          type: "bool"
          default_value {
            b: true
          }
        }
        attr {
          name: "padding"
          type: "string"
          allowed_values {
            list {
              s: "SAME"
              s: "VALID"
              s: "EXPLICIT"
            }
          }
        }
        attr {
          name: "explicit_paddings"
          type: "list(int)"
          default_value {
            list {
            }
          }
        }
        attr {
          name: "data_format"
          type: "string"
          default_value {
            s: "NHWC"
          }
          allowed_values {
            list {
              s: "NHWC"
              s: "NCHW"
            }
          }
        }
        attr {
          name: "dilations"
          type: "list(int)"
          default_value {
            list {
              i: 1
              i: 1
              i: 1
              i: 1
            }
          }
        }
      }
      op {
        name: "DepthwiseConv2dNative"
        input_arg {
          name: "input"
          type_attr: "T"
        }
        input_arg {
          name: "filter"
          type_attr: "T"
        }
        output_arg {
          name: "output"
          type_attr: "T"
        }
        attr {
          name: "T"
          type: "type"
          allowed_values {
            list {
              type: DT_HALF
              type: DT_BFLOAT16
              type: DT_FLOAT
              type: DT_DOUBLE
            }
          }
        }
        attr {
          name: "strides"
          type: "list(int)"
        }
        attr {
          name: "padding"
          type: "string"
          allowed_values {
            list {
              s: "SAME"
              s: "VALID"
              s: "EXPLICIT"
            }
          }
        }
        attr {
          name: "explicit_paddings"
          type: "list(int)"
          default_value {
            list {
            }
          }
        }
        attr {
          name: "data_format"
          type: "string"
          default_value {
            s: "NHWC"
          }
          allowed_values {
            list {
              s: "NHWC"
              s: "NCHW"
            }
          }
        }
        attr {
          name: "dilations"
          type: "list(int)"
          default_value {
            list {
              i: 1
              i: 1
              i: 1
              i: 1
            }
          }
        }
      }
      op {
        name: "FusedBatchNormV3"
        input_arg {
          name: "x"
          type_attr: "T"
        }
        input_arg {
          name: "scale"
          type_attr: "U"
        }
        input_arg {
          name: "offset"
          type_attr: "U"
        }
        input_arg {
          name: "mean"
          type_attr: "U"
        }
        input_arg {
          name: "variance"
          type_attr: "U"
        }
        output_arg {
          name: "y"
          type_attr: "T"
        }
        output_arg {
          name: "batch_mean"
          type_attr: "U"
        }
        output_arg {
          name: "batch_variance"
          type_attr: "U"
        }
        output_arg {
          name: "reserve_space_1"
          type_attr: "U"
        }
        output_arg {
          name: "reserve_space_2"
          type_attr: "U"
        }
        output_arg {
          name: "reserve_space_3"
          type_attr: "U"
        }
        attr {
          name: "T"
          type: "type"
          allowed_values {
            list {
              type: DT_HALF
              type: DT_BFLOAT16
              type: DT_FLOAT
            }
          }
        }
        attr {
          name: "U"
          type: "type"
          allowed_values {
            list {
              type: DT_FLOAT
            }
          }
        }
        attr {
          name: "epsilon"
          type: "float"
          default_value {
            f: 0.0001
          }
        }
        attr {
          name: "exponential_avg_factor"
          type: "float"
          default_value {
            f: 1.0
          }
        }
        attr {
          name: "data_format"
          type: "string"
          default_value {
            s: "NHWC"
          }
          allowed_values {
            list {
              s: "NHWC"
              s: "NCHW"
              s: "NDHWC"
              s: "NCDHW"
            }
          }
        }
        attr {
          name: "is_training"
          type: "bool"
          default_value {
            b: true
          }
        }
      }
      op {
        name: "Identity"
        input_arg {
          name: "input"
          type_attr: "T"
        }
        output_arg {
          name: "output"
          type_attr: "T"
        }
        attr {
          name: "T"
          type: "type"
        }
      }
      op {
        name: "Mean"
        input_arg {
          name: "input"
          type_attr: "T"
        }
        input_arg {
          name: "reduction_indices"
          type_attr: "Tidx"
        }
        output_arg {
          name: "output"
          type_attr: "T"
        }
        attr {
          name: "keep_dims"
          type: "bool"
          default_value {
            b: false
          }
        }
        attr {
          name: "T"
          type: "type"
          allowed_values {
            list {
              type: DT_FLOAT
              type: DT_DOUBLE
              type: DT_INT32
              type: DT_UINT8
              type: DT_INT16
              type: DT_INT8
              type: DT_COMPLEX64
              type: DT_INT64
              type: DT_QINT8
              type: DT_QUINT8
              type: DT_QINT32
              type: DT_BFLOAT16
              type: DT_UINT16
              type: DT_COMPLEX128
              type: DT_HALF
              type: DT_UINT32
              type: DT_UINT64
            }
          }
        }
        attr {
          name: "Tidx"
          type: "type"
          default_value {
            type: DT_INT32
          }
          allowed_values {
            list {
              type: DT_INT32
              type: DT_INT64
            }
          }
        }
      }
      op {
        name: "MergeV2Checkpoints"
        input_arg {
          name: "checkpoint_prefixes"
          type: DT_STRING
        }
        input_arg {
          name: "destination_prefix"
          type: DT_STRING
        }
        attr {
          name: "delete_old_dirs"
          type: "bool"
          default_value {
            b: true
          }
        }
        is_stateful: true
      }
      op {
        name: "Mul"
        input_arg {
          name: "x"
          type_attr: "T"
        }
        input_arg {
          name: "y"
          type_attr: "T"
        }
        output_arg {
          name: "z"
          type_attr: "T"
        }
        attr {
          name: "T"
          type: "type"
          allowed_values {
            list {
              type: DT_BFLOAT16
              type: DT_HALF
              type: DT_FLOAT
              type: DT_DOUBLE
              type: DT_UINT8
              type: DT_INT8
              type: DT_UINT16
              type: DT_INT16
              type: DT_INT32
              type: DT_UINT32
              type: DT_UINT64
              type: DT_INT64
              type: DT_COMPLEX64
              type: DT_COMPLEX128
            }
          }
        }
        is_commutative: true
      }
      op {
        name: "NoOp"
      }
      op {
        name: "Pack"
        input_arg {
          name: "values"
          type_attr: "T"
          number_attr: "N"
        }
        output_arg {
          name: "output"
          type_attr: "T"
        }
        attr {
          name: "N"
          type: "int"
          has_minimum: true
          minimum: 1
        }
        attr {
          name: "T"
          type: "type"
        }
        attr {
          name: "axis"
          type: "int"
          default_value {
            i: 0
          }
        }
      }
      op {
        name: "Placeholder"
        output_arg {
          name: "output"
          type_attr: "dtype"
        }
        attr {
          name: "dtype"
          type: "type"
        }
        attr {
          name: "shape"
          type: "shape"
          default_value {
            shape {
              unknown_rank: true
            }
          }
        }
      }
      op {
        name: "ReadVariableOp"
        input_arg {
          name: "resource"
          type: DT_RESOURCE
        }
        output_arg {
          name: "value"
          type_attr: "dtype"
        }
        attr {
          name: "dtype"
          type: "type"
        }
        is_stateful: true
      }
      op {
        name: "Relu"
        input_arg {
          name: "features"
          type_attr: "T"
        }
        output_arg {
          name: "activations"
          type_attr: "T"
        }
        attr {
          name: "T"
          type: "type"
          allowed_values {
            list {
              type: DT_FLOAT
              type: DT_DOUBLE
              type: DT_INT32
              type: DT_UINT8
              type: DT_INT16
              type: DT_INT8
              type: DT_INT64
              type: DT_BFLOAT16
              type: DT_UINT16
              type: DT_HALF
              type: DT_UINT32
              type: DT_UINT64
              type: DT_QINT8
            }
          }
        }
      }
      op {
        name: "Relu6"
        input_arg {
          name: "features"
          type_attr: "T"
        }
        output_arg {
          name: "activations"
          type_attr: "T"
        }
        attr {
          name: "T"
          type: "type"
          allowed_values {
            list {
              type: DT_FLOAT
              type: DT_DOUBLE
              type: DT_INT32
              type: DT_UINT8
              type: DT_INT16
              type: DT_INT8
              type: DT_INT64
              type: DT_BFLOAT16
              type: DT_UINT16
              type: DT_HALF
              type: DT_UINT32
              type: DT_UINT64
            }
          }
        }
      }
      op {
        name: "Reshape"
        input_arg {
          name: "tensor"
          type_attr: "T"
        }
        input_arg {
          name: "shape"
          type_attr: "Tshape"
        }
        output_arg {
          name: "output"
          type_attr: "T"
        }
        attr {
          name: "T"
          type: "type"
        }
        attr {
          name: "Tshape"
          type: "type"
          default_value {
            type: DT_INT32
          }
          allowed_values {
            list {
              type: DT_INT32
              type: DT_INT64
            }
          }
        }
      }
      op {
        name: "RestoreV2"
        input_arg {
          name: "prefix"
          type: DT_STRING
        }
        input_arg {
          name: "tensor_names"
          type: DT_STRING
        }
        input_arg {
          name: "shape_and_slices"
          type: DT_STRING
        }
        output_arg {
          name: "tensors"
          type_list_attr: "dtypes"
        }
        attr {
          name: "dtypes"
          type: "list(type)"
          has_minimum: true
          minimum: 1
        }
        is_stateful: true
      }
      op {
        name: "SaveV2"
        input_arg {
          name: "prefix"
          type: DT_STRING
        }
        input_arg {
          name: "tensor_names"
          type: DT_STRING
        }
        input_arg {
          name: "shape_and_slices"
          type: DT_STRING
        }
        input_arg {
          name: "tensors"
          type_list_attr: "dtypes"
        }
        attr {
          name: "dtypes"
          type: "list(type)"
          has_minimum: true
          minimum: 1
        }
        is_stateful: true
      }
      op {
        name: "Select"
        input_arg {
          name: "condition"
          type: DT_BOOL
        }
        input_arg {
          name: "t"
          type_attr: "T"
        }
        input_arg {
          name: "e"
          type_attr: "T"
        }
        output_arg {
          name: "output"
          type_attr: "T"
        }
        attr {
          name: "T"
          type: "type"
        }
      }
      op {
        name: "Shape"
        input_arg {
          name: "input"
          type_attr: "T"
        }
        output_arg {
          name: "output"
          type_attr: "out_type"
        }
        attr {
          name: "T"
          type: "type"
        }
        attr {
          name: "out_type"
          type: "type"
          default_value {
            type: DT_INT32
          }
          allowed_values {
            list {
              type: DT_INT32
              type: DT_INT64
            }
          }
        }
      }
      op {
        name: "ShardedFilename"
        input_arg {
          name: "basename"
          type: DT_STRING
        }
        input_arg {
          name: "shard"
          type: DT_INT32
        }
        input_arg {
          name: "num_shards"
          type: DT_INT32
        }
        output_arg {
          name: "filename"
          type: DT_STRING
        }
      }
      op {
        name: "Softmax"
        input_arg {
          name: "logits"
          type_attr: "T"
        }
        output_arg {
          name: "softmax"
          type_attr: "T"
        }
        attr {
          name: "T"
          type: "type"
          allowed_values {
            list {
              type: DT_HALF
              type: DT_BFLOAT16
              type: DT_FLOAT
              type: DT_DOUBLE
            }
          }
        }
      }
      op {
        name: "Squeeze"
        input_arg {
          name: "input"
          type_attr: "T"
        }
        output_arg {
          name: "output"
          type_attr: "T"
        }
        attr {
          name: "T"
          type: "type"
        }
        attr {
          name: "squeeze_dims"
          type: "list(int)"
          default_value {
            list {
            }
          }
          has_minimum: true
        }
      }
      op {
        name: "StatefulPartitionedCall"
        input_arg {
          name: "args"
          type_list_attr: "Tin"
        }
        output_arg {
          name: "output"
          type_list_attr: "Tout"
        }
        attr {
          name: "Tin"
          type: "list(type)"
          has_minimum: true
        }
        attr {
          name: "Tout"
          type: "list(type)"
          has_minimum: true
        }
        attr {
          name: "f"
          type: "func"
        }
        attr {
          name: "config"
          type: "string"
          default_value {
            s: ""
          }
        }
        attr {
          name: "config_proto"
          type: "string"
          default_value {
            s: ""
          }
        }
        attr {
          name: "executor_type"
          type: "string"
          default_value {
            s: ""
          }
        }
        is_stateful: true
      }
      op {
        name: "StaticRegexFullMatch"
        input_arg {
          name: "input"
          type: DT_STRING
        }
        output_arg {
          name: "output"
          type: DT_BOOL
        }
        attr {
          name: "pattern"
          type: "string"
        }
      }
      op {
        name: "StringJoin"
        input_arg {
          name: "inputs"
          type: DT_STRING
          number_attr: "N"
        }
        output_arg {
          name: "output"
          type: DT_STRING
        }
        attr {
          name: "N"
          type: "int"
          has_minimum: true
          minimum: 1
        }
        attr {
          name: "separator"
          type: "string"
          default_value {
            s: ""
          }
        }
      }
      op {
        name: "Sub"
        input_arg {
          name: "x"
          type_attr: "T"
        }
        input_arg {
          name: "y"
          type_attr: "T"
        }
        output_arg {
          name: "z"
          type_attr: "T"
        }
        attr {
          name: "T"
          type: "type"
          allowed_values {
            list {
              type: DT_BFLOAT16
              type: DT_HALF
              type: DT_FLOAT
              type: DT_DOUBLE
              type: DT_UINT8
              type: DT_INT8
              type: DT_UINT16
              type: DT_INT16
              type: DT_INT32
              type: DT_INT64
              type: DT_COMPLEX64
              type: DT_COMPLEX128
              type: DT_UINT32
              type: DT_UINT64
            }
          }
        }
      }
      op {
        name: "VarHandleOp"
        output_arg {
          name: "resource"
          type: DT_RESOURCE
        }
        attr {
          name: "container"
          type: "string"
          default_value {
            s: ""
          }
        }
        attr {
          name: "shared_name"
          type: "string"
          default_value {
            s: ""
          }
        }
        attr {
          name: "dtype"
          type: "type"
        }
        attr {
          name: "shape"
          type: "shape"
        }
        attr {
          name: "allowed_devices"
          type: "list(string)"
          default_value {
            list {
            }
          }
        }
        is_stateful: true
      }
    }
    tags: "serve"
    tensorflow_version: "2.5.0"
    tensorflow_git_version: "unknown"
    stripped_default_attrs: true
  }
  graph_def {
    node {
      name: "save_counter"
      op: "VarHandleOp"
      attr {
        key: "_output_shapes"
        value {
          list {
            shape {
            }
          }
        }
      }
      attr {
        key: "dtype"
        value {
          type: DT_INT64
        }
      }
      attr {
        key: "shape"
        value {
          shape {
          }
        }
      }
      attr {
        key: "shared_name"
        value {
          s: "save_counter"
        }
      }
    }
    node {
      name: "save_counter/Read/ReadVariableOp"
      op: "ReadVariableOp"
      input: "save_counter"
      attr {
        key: "_output_shapes"
        value {
          list {
            shape {
            }
          }
        }
      }
      attr {
        key: "dtype"
        value {
          type: DT_INT64
        }
      }
    }
    node {
      name: "MobilenetV3/expanded_conv_3/expand/BatchNorm/gamma"
      op: "VarHandleOp"
      attr {
        key: "_output_shapes"
        value {
          list {
            shape {
            }
          }
        }
      }
      attr {
        key: "dtype"
        value {
          type: DT_FLOAT
        }
      }
      attr {
        key: "shape"
        value {
          shape {
            dim {
              size: 96
            }
          }
        }
      }
      attr {
        key: "shared_name"
        value {
          s: "MobilenetV3/expanded_conv_3/expand/BatchNorm/gamma"
        }
      }
    }
    node {
      name: "MobilenetV3/expanded_conv_3/expand/BatchNorm/gamma/Read/ReadVariableOp"
      op: "ReadVariableOp"
      input: "MobilenetV3/expanded_conv_3/expand/BatchNorm/gamma"
      attr {
        key: "_output_shapes"
        value {
          list {
            shape {
              dim {
                size: 96
              }
            }
          }
        }
      }
      attr {
        key: "dtype"
        value {
          type: DT_FLOAT
        }
      }
    }
    node {
      name: "MobilenetV3/expanded_conv_3/depthwise/depthwise_weights"
      op: "VarHandleOp"
      attr {
        key: "_output_shapes"
        value {
          list {
            shape {
            }
          }
        }
      }
      attr {
        key: "dtype"
        value {
          type: DT_FLOAT
        }
      }
      attr {
        key: "shape"
        value {
          shape {
            dim {
              size: 5
            }
            dim {
              size: 5
            }
            dim {
              size: 96
            }
            dim {
              size: 1
            }
          }
        }
      }
      attr {
        key: "shared_name"
        value {
          s: "MobilenetV3/expanded_conv_3/depthwise/depthwise_weights"
        }
      }
    }
    node {
      name: "MobilenetV3/expanded_conv_3/depthwise/depthwise_weights/Read/ReadVariableOp"
      op: "ReadVariableOp"
      input: "MobilenetV3/expanded_conv_3/depthwise/depthwise_weights"
      attr {
        key: "_output_shapes"
        value {
          list {
            shape {
              dim {
                size: 5
              }
              dim {
                size: 5
              }
              dim {
                size: 96
              }
              dim {
                size: 1
              }
            }
          }
        }
      }
      attr {
        key: "dtype"
        value {
          type: DT_FLOAT
        }
      }
    }
    node {
      name: "MobilenetV3/expanded_conv_3/depthwise/BatchNorm/gamma"
      op: "VarHandleOp"
      attr {
        key: "_output_shapes"
        value {
          list {
            shape {
            }
          }
        }
      }
      attr {
        key: "dtype"
        value {
          type: DT_FLOAT
        }
      }
      attr {
        key: "shape"
        value {
          shape {
            dim {
              size: 96
            }
          }
        }
      }
      attr {
        key: "shared_name"
        value {
          s: "MobilenetV3/expanded_conv_3/depthwise/BatchNorm/gamma"
        }
      }
    }
    node {
      name: "MobilenetV3/expanded_conv_3/depthwise/BatchNorm/gamma/Read/ReadVariableOp"
      op: "ReadVariableOp"
      input: "MobilenetV3/expanded_conv_3/depthwise/BatchNorm/gamma"
      attr {
        key: "_output_shapes"
        value {
          list {
            shape {
              dim {
                size: 96
              }
            }
          }
        }
      }
      attr {
        key: "dtype"
        value {
          type: DT_FLOAT
        }
      }
    }
    node {
      name: "MobilenetV3/expanded_conv_4/expand/BatchNorm/moving_variance"
      op: "VarHandleOp"
      attr {
        key: "_output_shapes"
        value {
          list {
            shape {
            }
          }
        }
      }
      attr {
        key: "dtype"
        value {
          type: DT_FLOAT
        }
      }
      attr {
        key: "shape"
        value {
          shape {
            dim {
              size: 240
            }
          }
        }
      }
      attr {
        key: "shared_name"
        value {
          s: "MobilenetV3/expanded_conv_4/expand/BatchNorm/moving_variance"
        }
      }
    }
    node {
      name: "MobilenetV3/expanded_conv_4/expand/BatchNorm/moving_variance/Read/ReadVariableOp"
      op: "ReadVariableOp"
      input: "MobilenetV3/expanded_conv_4/expand/BatchNorm/moving_variance"
      attr {
        key: "_output_shapes"
        value {
          list {
            shape {
              dim {
                size: 240
              }
            }
          }
        }
      }
      attr {
        key: "dtype"
        value {
          type: DT_FLOAT
        }
      }
    }
    node {
      name: "MobilenetV3/expanded_conv_7/depthwise/depthwise_weights"
      op: "VarHandleOp"
      attr {
        key: "_output_shapes"
        value {
          list {
            shape {
            }
          }
        }
      }
      attr {
        key: "dtype"
        value {
          type: DT_FLOAT
        }
      }
      attr {
        key: "shape"
        value {
          shape {
            dim {
              size: 5
            }
            dim {
              size: 5
            }
            dim {
              size: 144
            }
            dim {
              size: 1
            }
          }
        }
      }
      attr {
        key: "shared_name"
        value {
          s: "MobilenetV3/expanded_conv_7/depthwise/depthwise_weights"
        }
      }
    }
    node {
      name: "MobilenetV3/expanded_conv_7/depthwise/depthwise_weights/Read/ReadVariableOp"
      op: "ReadVariableOp"
      input: "MobilenetV3/expanded_conv_7/depthwise/depthwise_weights"
      attr {
        key: "_output_shapes"
        value {
          list {
            shape {
              dim {
                size: 5
              }
              dim {
                size: 5
              }
              dim {
                size: 144
              }
              dim {
                size: 1
              }
            }
          }
        }
      }
      attr {
        key: "dtype"
        value {
          type: DT_FLOAT
        }
      }
    }
    node {
      name: "MobilenetV3/expanded_conv_7/project/BatchNorm/moving_variance"
      op: "VarHandleOp"
      attr {
        key: "_output_shapes"
        value {
          list {
            shape {
            }
          }
        }
      }
      attr {
        key: "dtype"
        value {
          type: DT_FLOAT
        }
      }
      attr {
        key: "shape"
        value {
          shape {
            dim {
              size: 48
            }
          }
        }
      }
      attr {
        key: "shared_name"
        value {
          s: "MobilenetV3/expanded_conv_7/project/BatchNorm/moving_variance"
        }
      }
    }
    node {
      name: "MobilenetV3/expanded_conv_7/project/BatchNorm/moving_variance/Read/ReadVariableOp"
      op: "ReadVariableOp"
      input: "MobilenetV3/expanded_conv_7/project/BatchNorm/moving_variance"
      attr {
        key: "_output_shapes"
        value {
          list {
            shape {
              dim {
                size: 48
              }
            }
          }
        }
      }
      attr {
        key: "dtype"
        value {
          type: DT_FLOAT
        }
      }
    }
    node {
      name: "MobilenetV3/expanded_conv_10/depthwise/BatchNorm/gamma"
      op: "VarHandleOp"
      attr {
        key: "_output_shapes"
        value {
          list {
            shape {
            }
          }
        }
      }
      attr {
        key: "dtype"
        value {
          type: DT_FLOAT
        }
      }
      attr {
        key: "shape"
        value {
          shape {
            dim {
              size: 576
            }
          }
        }
      }
      attr {
        key: "shared_name"
        value {
          s: "MobilenetV3/expanded_conv_10/depthwise/BatchNorm/gamma"
        }
      }
    }
    node {
      name: "MobilenetV3/expanded_conv_10/depthwise/BatchNorm/gamma/Read/ReadVariableOp"
      op: "ReadVariableOp"
      input: "MobilenetV3/expanded_conv_10/depthwise/BatchNorm/gamma"
      attr {
        key: "_output_shapes"
        value {
          list {
            shape {
              dim {
                size: 576
              }
            }
          }
        }
      }
      attr {
        key: "dtype"
        value {
          type: DT_FLOAT
        }
      }
    }
    node {
      name: "MobilenetV3/expanded_conv_10/squeeze_excite/Conv_1/biases"
      op: "VarHandleOp"
      attr {
        key: "_output_shapes"
        value {
          list {
            shape {
            }
          }
        }
      }
      attr {
        key: "dtype"
        value {
          type: DT_FLOAT
        }
      }
      attr {
        key: "shape"
        value {
          shape {
            dim {
              size: 576
            }
          }
        }
      }
      attr {
        key: "shared_name"
        value {
          s: "MobilenetV3/expanded_conv_10/squeeze_excite/Conv_1/biases"
        }
      }
    }
    node {
      name: "MobilenetV3/expanded_conv_10/squeeze_excite/Conv_1/biases/Read/ReadVariableOp"
      op: "ReadVariableOp"
      input: "MobilenetV3/expanded_conv_10/squeeze_excite/Conv_1/biases"
      attr {
        key: "_output_shapes"
        value {
          list {
            shape {
              dim {
                size: 576
              }
            }
          }
        }
      }
      attr {
        key: "dtype"
        value {
          type: DT_FLOAT
        }
      }
    }
    node {
      name: "MobilenetV3/expanded_conv_1/expand/BatchNorm/beta"
      op: "VarHandleOp"
      attr {
        key: "_output_shapes"
        value {
          list {
            shape {
            }
          }
        }
      }
      attr {
        key: "dtype"
        value {
          type: DT_FLOAT
        }
      }
      attr {
        key: "shape"
        value {
          shape {
            dim {
              size: 72
            }
          }
        }
      }
      attr {
        key: "shared_name"
        value {
          s: "MobilenetV3/expanded_conv_1/expand/BatchNorm/beta"
        }
      }
    }
    node {
      name: "MobilenetV3/expanded_conv_1/expand/BatchNorm/beta/Read/ReadVariableOp"
      op: "ReadVariableOp"
      input: "MobilenetV3/expanded_conv_1/expand/BatchNorm/beta"
      attr {
        key: "_output_shapes"
        value {
          list {
            shape {
              dim {
                size: 72
              }
            }
          }
        }
      }
      attr {
        key: "dtype"
        value {
          type: DT_FLOAT
        }
      }
    }
    node {
      name: "MobilenetV3/expanded_conv_2/project/BatchNorm/beta"
      op: "VarHandleOp"
      attr {
        key: "_output_shapes"
        value {
          list {
            shape {
            }
          }
        }
      }
      attr {
        key: "dtype"
        value {
          type: DT_FLOAT
        }
      }
      attr {
        key: "shape"
        value {
          shape {
            dim {
              size: 24
            }
          }
        }
      }
      attr {
        key: "shared_name"
        value {
          s: "MobilenetV3/expanded_conv_2/project/BatchNorm/beta"
        }
      }
    }
    node {
      name: "MobilenetV3/expanded_conv_2/project/BatchNorm/beta/Read/ReadVariableOp"
      op: "ReadVariableOp"
      input: "MobilenetV3/expanded_conv_2/project/BatchNorm/beta"
      attr {
        key: "_output_shapes"
        value {
          list {
            shape {
              dim {
                size: 24
              }
            }
          }
        }
      }
      attr {
        key: "dtype"
        value {
          type: DT_FLOAT
        }
      }
    }
    node {
      name: "MobilenetV3/expanded_conv_4/project/weights"
      op: "VarHandleOp"
      attr {
        key: "_output_shapes"
        value {
          list {
            shape {
            }
          }
        }
      }
      attr {
        key: "dtype"
        value {
          type: DT_FLOAT
        }
      }
      attr {
        key: "shape"
        value {
          shape {
            dim {
              size: 1
            }
            dim {
              size: 1
            }
            dim {
              size: 240
            }
            dim {
              size: 40
            }
          }
        }
      }
      attr {
        key: "shared_name"
        value {
          s: "MobilenetV3/expanded_conv_4/project/weights"
        }
      }
    }
    node {
      name: "MobilenetV3/expanded_conv_4/project/weights/Read/ReadVariableOp"
      op: "ReadVariableOp"
      input: "MobilenetV3/expanded_conv_4/project/weights"
      attr {
        key: "_output_shapes"
        value {
          list {
            shape {
              dim {
                size: 1
              }
              dim {
                size: 1
              }
              dim {
                size: 240
              }
              dim {
                size: 40
              }
            }
          }
        }
      }
      attr {
        key: "dtype"
        value {
          type: DT_FLOAT
        }
      }
    }
    node {
      name: "MobilenetV3/expanded_conv_4/squeeze_excite/Conv/biases"
      op: "VarHandleOp"
      attr {
        key: "_output_shapes"
        value {
          list {
            shape {
            }
          }
        }
      }
      attr {
        key: "dtype"
        value {
          type: DT_FLOAT
        }
      }
      attr {
        key: "shape"
        value {
          shape {
            dim {
              size: 64
            }
          }
        }
      }
      attr {
        key: "shared_name"
        value {
          s: "MobilenetV3/expanded_conv_4/squeeze_excite/Conv/biases"
        }
      }
    }
    node {
      name: "MobilenetV3/expanded_conv_4/squeeze_excite/Conv/biases/Read/ReadVariableOp"
      op: "ReadVariableOp"
      input: "MobilenetV3/expanded_conv_4/squeeze_excite/Conv/biases"
      attr {
        key: "_output_shapes"
        value {
          list {
            shape {
              dim {
                size: 64
              }
            }
          }
        }
      }
      attr {
        key: "dtype"
        value {
          type: DT_FLOAT
        }
      }
    }
    node {
      name: "MobilenetV3/expanded_conv_9/expand/BatchNorm/moving_mean"
      op: "VarHandleOp"
      attr {
        key: "_output_shapes"
        value {
          list {
            shape {
            }
          }
        }
      }
      attr {
        key: "dtype"
        value {
          type: DT_FLOAT
        }
      }
      attr {
        key: "shape"
        value {
          shape {
            dim {
              size: 576
            }
          }
        }
      }
      attr {
        key: "shared_name"
        value {
          s: "MobilenetV3/expanded_conv_9/expand/BatchNorm/moving_mean"
        }
      }
    }
    node {
      name: "MobilenetV3/expanded_conv_9/expand/BatchNorm/moving_mean/Read/ReadVariableOp"
      op: "ReadVariableOp"
      input: "MobilenetV3/expanded_conv_9/expand/BatchNorm/moving_mean"
      attr {
        key: "_output_shapes"
        value {
          list {
            shape {
              dim {
                size: 576
              }
            }
          }
        }
      }
      attr {
        key: "dtype"
        value {
          type: DT_FLOAT
        }
      }
    }
    node {
      name: "MobilenetV3/expanded_conv_10/project/weights"
      op: "VarHandleOp"
      attr {
        key: "_output_shapes"
        value {
          list {
            shape {
            }
          }
        }
      }
      attr {
        key: "dtype"
        value {
          type: DT_FLOAT
        }
      }
      attr {
        key: "shape"
        value {
          shape {
            dim {
              size: 1
            }
            dim {
              size: 1
            }
            dim {
              size: 576
            }
            dim {
              size: 96
            }
          }
        }
      }
      attr {
        key: "shared_name"
        value {
          s: "MobilenetV3/expanded_conv_10/project/weights"
        }
      }
    }
    node {
      name: "MobilenetV3/expanded_conv_10/project/weights/Read/ReadVariableOp"
      op: "ReadVariableOp"
      input: "MobilenetV3/expanded_conv_10/project/weights"
      attr {
        key: "_output_shapes"
        value {
          list {
            shape {
              dim {
                size: 1
              }
              dim {
                size: 1
              }
              dim {
                size: 576
              }
              dim {
                size: 96
              }
            }
          }
        }
      }
      attr {
        key: "dtype"
        value {
          type: DT_FLOAT
        }
      }
    }
    node {
      name: "MobilenetV3/Conv/BatchNorm/beta"
      op: "VarHandleOp"
      attr {
        key: "_output_shapes"
        value {
          list {
            shape {
            }
          }
        }
      }
      attr {
        key: "dtype"
        value {
          type: DT_FLOAT
        }
      }
      attr {
        key: "shape"
        value {
          shape {
            dim {
              size: 16
            }
          }
        }
      }
      attr {
        key: "shared_name"
        value {
          s: "MobilenetV3/Conv/BatchNorm/beta"
        }
      }
    }
    node {
      name: "MobilenetV3/Conv/BatchNorm/beta/Read/ReadVariableOp"
      op: "ReadVariableOp"
      input: "MobilenetV3/Conv/BatchNorm/beta"
      attr {
        key: "_output_shapes"
        value {
          list {
            shape {
              dim {
                size: 16
              }
            }
          }
        }
      }
      attr {
        key: "dtype"
        value {
          type: DT_FLOAT
        }
      }
    }
    node {
      name: "MobilenetV3/expanded_conv/depthwise/BatchNorm/moving_mean"
      op: "VarHandleOp"
      attr {
        key: "_output_shapes"
        value {
          list {
            shape {
            }
          }
        }
      }
      attr {
        key: "dtype"
        value {
          type: DT_FLOAT
        }
      }
      attr {
        key: "shape"
        value {
          shape {
            dim {
              size: 16
            }
          }
        }
      }
      attr {
        key: "shared_name"
        value {
          s: "MobilenetV3/expanded_conv/depthwise/BatchNorm/moving_mean"
        }
      }
    }
    node {
      name: "MobilenetV3/expanded_conv/depthwise/BatchNorm/moving_mean/Read/ReadVariableOp"
      op: "ReadVariableOp"
      input: "MobilenetV3/expanded_conv/depthwise/BatchNorm/moving_mean"
      attr {
        key: "_output_shapes"
        value {
          list {
            shape {
              dim {
                size: 16
              }
            }
          }
        }
      }
      attr {
        key: "dtype"
        value {
          type: DT_FLOAT
        }
      }
    }
    node {
      name: "MobilenetV3/expanded_conv_1/expand/BatchNorm/gamma"
      op: "VarHandleOp"
      attr {
        key: "_output_shapes"
        value {
          list {
            shape {
            }
          }
        }
      }
      attr {
        key: "dtype"
        value {
          type: DT_FLOAT
        }
      }
      attr {
        key: "shape"
        value {
          shape {
            dim {
              size: 72
            }
          }
        }
      }
      attr {
        key: "shared_name"
        value {
          s: "MobilenetV3/expanded_conv_1/expand/BatchNorm/gamma"
        }
      }
    }
    node {
      name: "MobilenetV3/expanded_conv_1/expand/BatchNorm/gamma/Read/ReadVariableOp"
      op: "ReadVariableOp"
      input: "MobilenetV3/expanded_conv_1/expand/BatchNorm/gamma"
      attr {
        key: "_output_shapes"
        value {
          list {
            shape {
              dim {
                size: 72
              }
            }
          }
        }
      }
      attr {
        key: "dtype"
        value {
          type: DT_FLOAT
        }
      }
    }
    node {
      name: "MobilenetV3/expanded_conv_1/project/BatchNorm/gamma"
      op: "VarHandleOp"
      attr {
        key: "_output_shapes"
        value {
          list {
            shape {
            }
          }
        }
      }
      attr {
        key: "dtype"
        value {
          type: DT_FLOAT
        }
      }
      attr {
        key: "shape"
        value {
          shape {
            dim {
              size: 24
            }
          }
        }
      }
      attr {
        key: "shared_name"
        value {
          s: "MobilenetV3/expanded_conv_1/project/BatchNorm/gamma"
        }
      }
    }
    node {
      name: "MobilenetV3/expanded_conv_1/project/BatchNorm/gamma/Read/ReadVariableOp"
      op: "ReadVariableOp"
      input: "MobilenetV3/expanded_conv_1/project/BatchNorm/gamma"
      attr {
        key: "_output_shapes"
        value {
          list {
            shape {
              dim {
                size: 24
              }
            }
          }
        }
      }
      attr {
        key: "dtype"
        value {
          type: DT_FLOAT
        }
      }
    }
    node {
      name: "MobilenetV3/expanded_conv_3/squeeze_excite/Conv/biases"
      op: "VarHandleOp"
      attr {
        key: "_output_shapes"
        value {
          list {
            shape {
            }
          }
        }
      }
      attr {
        key: "dtype"
        value {
          type: DT_FLOAT
        }
      }
      attr {
        key: "shape"
        value {
          shape {
            dim {
              size: 24
            }
          }
        }
      }
      attr {
        key: "shared_name"
        value {
          s: "MobilenetV3/expanded_conv_3/squeeze_excite/Conv/biases"
        }
      }
    }
    node {
      name: "MobilenetV3/expanded_conv_3/squeeze_excite/Conv/biases/Read/ReadVariableOp"
      op: "ReadVariableOp"
      input: "MobilenetV3/expanded_conv_3/squeeze_excite/Conv/biases"
      attr {
        key: "_output_shapes"
        value {
          list {
            shape {
              dim {
                size: 24
              }
            }
          }
        }
      }
      attr {
        key: "dtype"
        value {
          type: DT_FLOAT
        }
      }
    }
    node {
      name: "MobilenetV3/expanded_conv_5/squeeze_excite/Conv/weights"
      op: "VarHandleOp"
      attr {
        key: "_output_shapes"
        value {
          list {
            shape {
            }
          }
        }
      }
      attr {
        key: "dtype"
        value {
          type: DT_FLOAT
        }
      }
      attr {
        key: "shape"
        value {
          shape {
            dim {
              size: 1
            }
            dim {
              size: 1
            }
            dim {
              size: 240
            }
            dim {
              size: 64
            }
          }
        }
      }
      attr {
        key: "shared_name"
        value {
          s: "MobilenetV3/expanded_conv_5/squeeze_excite/Conv/weights"
        }
      }
    }
    node {
      name: "MobilenetV3/expanded_conv_5/squeeze_excite/Conv/weights/Read/ReadVariableOp"
      op: "ReadVariableOp"
      input: "MobilenetV3/expanded_conv_5/squeeze_excite/Conv/weights"
      attr {
        key: "_output_shapes"
        value {
          list {
            shape {
              dim {
                size: 1
              }
              dim {
                size: 1
              }
              dim {
                size: 240
              }
              dim {
                size: 64
              }
            }
          }
        }
      }
      attr {
        key: "dtype"
        value {
          type: DT_FLOAT
        }
      }
    }
    node {
      name: "MobilenetV3/expanded_conv_5/squeeze_excite/Conv_1/biases"
      op: "VarHandleOp"
      attr {
        key: "_output_shapes"
        value {
          list {
            shape {
            }
          }
        }
      }
      attr {
        key: "dtype"
        value {
          type: DT_FLOAT
        }
      }
      attr {
        key: "shape"
        value {
          shape {
            dim {
              size: 240
            }
          }
        }
      }
      attr {
        key: "shared_name"
        value {
          s: "MobilenetV3/expanded_conv_5/squeeze_excite/Conv_1/biases"
        }
      }
    }
    node {
      name: "MobilenetV3/expanded_conv_5/squeeze_excite/Conv_1/biases/Read/ReadVariableOp"
      op: "ReadVariableOp"
      input: "MobilenetV3/expanded_conv_5/squeeze_excite/Conv_1/biases"
      attr {
        key: "_output_shapes"
        value {
          list {
            shape {
              dim {
                size: 240
              }
            }
          }
        }
      }
      attr {
        key: "dtype"
        value {
          type: DT_FLOAT
        }
      }
    }
    node {
      name: "MobilenetV3/expanded_conv_8/project/BatchNorm/beta"
      op: "VarHandleOp"
      attr {
        key: "_output_shapes"
        value {
          list {
            shape {
            }
          }
        }
      }
      attr {
        key: "dtype"
        value {
          type: DT_FLOAT
        }
      }
      attr {
        key: "shape"
        value {
          shape {
            dim {
              size: 96
            }
          }
        }
      }
      attr {
        key: "shared_name"
        value {
          s: "MobilenetV3/expanded_conv_8/project/BatchNorm/beta"
        }
      }
    }
    node {
      name: "MobilenetV3/expanded_conv_8/project/BatchNorm/beta/Read/ReadVariableOp"
      op: "ReadVariableOp"
      input: "MobilenetV3/expanded_conv_8/project/BatchNorm/beta"
      attr {
        key: "_output_shapes"
        value {
          list {
            shape {
              dim {
                size: 96
              }
            }
          }
        }
      }
      attr {
        key: "dtype"
        value {
          type: DT_FLOAT
        }
      }
    }
    node {
      name: "MobilenetV3/expanded_conv_9/squeeze_excite/Conv/weights"
      op: "VarHandleOp"
      attr {
        key: "_output_shapes"
        value {
          list {
            shape {
            }
          }
        }
      }
      attr {
        key: "dtype"
        value {
          type: DT_FLOAT
        }
      }
      attr {
        key: "shape"
        value {
          shape {
            dim {
              size: 1
            }
            dim {
              size: 1
            }
            dim {
              size: 576
            }
            dim {
              size: 144
            }
          }
        }
      }
      attr {
        key: "shared_name"
        value {
          s: "MobilenetV3/expanded_conv_9/squeeze_excite/Conv/weights"
        }
      }
    }
    node {
      name: "MobilenetV3/expanded_conv_9/squeeze_excite/Conv/weights/Read/ReadVariableOp"
      op: "ReadVariableOp"
      input: "MobilenetV3/expanded_conv_9/squeeze_excite/Conv/weights"
      attr {
        key: "_output_shapes"
        value {
          list {
            shape {
              dim {
                size: 1
              }
              dim {
                size: 1
              }
              dim {
                size: 576
              }
              dim {
                size: 144
              }
            }
          }
        }
      }
      attr {
        key: "dtype"
        value {
          type: DT_FLOAT
        }
      }
    }
    node {
      name: "MobilenetV3/expanded_conv_9/project/BatchNorm/beta"
      op: "VarHandleOp"
      attr {
        key: "_output_shapes"
        value {
          list {
            shape {
            }
          }
        }
      }
      attr {
        key: "dtype"
        value {
          type: DT_FLOAT
        }
      }
      attr {
        key: "shape"
        value {
          shape {
            dim {
              size: 96
            }
          }
        }
      }
      attr {
        key: "shared_name"
        value {
          s: "MobilenetV3/expanded_conv_9/project/BatchNorm/beta"
        }
      }
    }
    node {
      name: "MobilenetV3/expanded_conv_9/project/BatchNorm/beta/Read/ReadVariableOp"
      op: "ReadVariableOp"
      input: "MobilenetV3/expanded_conv_9/project/BatchNorm/beta"
      attr {
        key: "_output_shapes"
        value {
          list {
            shape {
              dim {
                size: 96
              }
            }
          }
        }
      }
      attr {
        key: "dtype"
        value {
          type: DT_FLOAT
        }
      }
    }
    node {
      name: "MobilenetV3/expanded_conv/project/BatchNorm/beta"
      op: "VarHandleOp"
      attr {
        key: "_output_shapes"
        value {
          list {
            shape {
            }
          }
        }
      }
      attr {
        key: "dtype"
        value {
          type: DT_FLOAT
        }
      }
      attr {
        key: "shape"
        value {
          shape {
            dim {
              size: 16
            }
          }
        }
      }
      attr {
        key: "shared_name"
        value {
          s: "MobilenetV3/expanded_conv/project/BatchNorm/beta"
        }
      }
    }
    node {
      name: "MobilenetV3/expanded_conv/project/BatchNorm/beta/Read/ReadVariableOp"
      op: "ReadVariableOp"
      input: "MobilenetV3/expanded_conv/project/BatchNorm/beta"
      attr {
        key: "_output_shapes"
        value {
          list {
            shape {
              dim {
                size: 16
              }
            }
          }
        }
      }
      attr {
        key: "dtype"
        value {
          type: DT_FLOAT
        }
      }
    }
    node {
      name: "MobilenetV3/expanded_conv_6/expand/weights"
      op: "VarHandleOp"
      attr {
        key: "_output_shapes"
        value {
          list {
            shape {
            }
          }
        }
      }
      attr {
        key: "dtype"
        value {
          type: DT_FLOAT
        }
      }
      attr {
        key: "shape"
        value {
          shape {
            dim {
              size: 1
            }
            dim {
              size: 1
            }
            dim {
              size: 40
            }
            dim {
              size: 120
            }
          }
        }
      }
      attr {
        key: "shared_name"
        value {
          s: "MobilenetV3/expanded_conv_6/expand/weights"
        }
      }
    }
    node {
      name: "MobilenetV3/expanded_conv_6/expand/weights/Read/ReadVariableOp"
      op: "ReadVariableOp"
      input: "MobilenetV3/expanded_conv_6/expand/weights"
      attr {
        key: "_output_shapes"
        value {
          list {
            shape {
              dim {
                size: 1
              }
              dim {
                size: 1
              }
              dim {
                size: 40
              }
              dim {
                size: 120
              }
            }
          }
        }
      }
      attr {
        key: "dtype"
        value {
          type: DT_FLOAT
        }
      }
    }
    node {
      name: "MobilenetV3/Conv_1/BatchNorm/moving_mean"
      op: "VarHandleOp"
      attr {
        key: "_output_shapes"
        value {
          list {
            shape {
            }
          }
        }
      }
      attr {
        key: "dtype"
        value {
          type: DT_FLOAT
        }
      }
      attr {
        key: "shape"
        value {
          shape {
            dim {
              size: 576
            }
          }
        }
      }
      attr {
        key: "shared_name"
        value {
          s: "MobilenetV3/Conv_1/BatchNorm/moving_mean"
        }
      }
    }
    node {
      name: "MobilenetV3/Conv_1/BatchNorm/moving_mean/Read/ReadVariableOp"
      op: "ReadVariableOp"
      input: "MobilenetV3/Conv_1/BatchNorm/moving_mean"
      attr {
        key: "_output_shapes"
        value {
          list {
            shape {
              dim {
                size: 576
              }
            }
          }
        }
      }
      attr {
        key: "dtype"
        value {
          type: DT_FLOAT
        }
      }
    }
    node {
      name: "MobilenetV3/expanded_conv_4/depthwise/BatchNorm/moving_mean"
      op: "VarHandleOp"
      attr {
        key: "_output_shapes"
        value {
          list {
            shape {
            }
          }
        }
      }
      attr {
        key: "dtype"
        value {
          type: DT_FLOAT
        }
      }
      attr {
        key: "shape"
        value {
          shape {
            dim {
              size: 240
            }
          }
        }
      }
      attr {
        key: "shared_name"
        value {
          s: "MobilenetV3/expanded_conv_4/depthwise/BatchNorm/moving_mean"
        }
      }
    }
    node {
      name: "MobilenetV3/expanded_conv_4/depthwise/BatchNorm/moving_mean/Read/ReadVariableOp"
      op: "ReadVariableOp"
      input: "MobilenetV3/expanded_conv_4/depthwise/BatchNorm/moving_mean"
      attr {
        key: "_output_shapes"
        value {
          list {
            shape {
              dim {
                size: 240
              }
            }
          }
        }
      }
      attr {
        key: "dtype"
        value {
          type: DT_FLOAT
        }
      }
    }
    node {
      name: "MobilenetV3/expanded_conv_2/project/BatchNorm/moving_mean"
      op: "VarHandleOp"
      attr {
        key: "_output_shapes"
        value {
          list {
            shape {
            }
          }
        }
      }
      attr {
        key: "dtype"
        value {
          type: DT_FLOAT
        }
      }
      attr {
        key: "shape"
        value {
          shape {
            dim {
              size: 24
            }
          }
        }
      }
      attr {
        key: "shared_name"
        value {
          s: "MobilenetV3/expanded_conv_2/project/BatchNorm/moving_mean"
        }
      }
    }
    node {
      name: "MobilenetV3/expanded_conv_2/project/BatchNorm/moving_mean/Read/ReadVariableOp"
      op: "ReadVariableOp"
      input: "MobilenetV3/expanded_conv_2/project/BatchNorm/moving_mean"
      attr {
        key: "_output_shapes"
        value {
          list {
            shape {
              dim {
                size: 24
              }
            }
          }
        }
      }
      attr {
        key: "dtype"
        value {
          type: DT_FLOAT
        }
      }
    }
    node {
      name: "MobilenetV3/expanded_conv_3/depthwise/BatchNorm/moving_mean"
      op: "VarHandleOp"
      attr {
        key: "_output_shapes"
        value {
          list {
            shape {
            }
          }
        }
      }
      attr {
        key: "dtype"
        value {
          type: DT_FLOAT
        }
      }
      attr {
        key: "shape"
        value {
          shape {
            dim {
              size: 96
            }
          }
        }
      }
      attr {
        key: "shared_name"
        value {
          s: "MobilenetV3/expanded_conv_3/depthwise/BatchNorm/moving_mean"
        }
      }
    }
    node {
      name: "MobilenetV3/expanded_conv_3/depthwise/BatchNorm/moving_mean/Read/ReadVariableOp"
      op: "ReadVariableOp"
      input: "MobilenetV3/expanded_conv_3/depthwise/BatchNorm/moving_mean"
      attr {
        key: "_output_shapes"
        value {
          list {
            shape {
              dim {
                size: 96
              }
            }
          }
        }
      }
      attr {
        key: "dtype"
        value {
          type: DT_FLOAT
        }
      }
    }
    node {
      name: "MobilenetV3/expanded_conv_9/project/BatchNorm/moving_mean"
      op: "VarHandleOp"
      attr {
        key: "_output_shapes"
        value {
          list {
            shape {
            }
          }
        }
      }
      attr {
        key: "dtype"
        value {
          type: DT_FLOAT
        }
      }
      attr {
        key: "shape"
        value {
          shape {
            dim {
              size: 96
            }
          }
        }
      }
      attr {
        key: "shared_name"
        value {
          s: "MobilenetV3/expanded_conv_9/project/BatchNorm/moving_mean"
        }
      }
    }
    node {
      name: "MobilenetV3/expanded_conv_9/project/BatchNorm/moving_mean/Read/ReadVariableOp"
      op: "ReadVariableOp"
      input: "MobilenetV3/expanded_conv_9/project/BatchNorm/moving_mean"
      attr {
        key: "_output_shapes"
        value {
          list {
            shape {
              dim {
                size: 96
              }
            }
          }
        }
      }
      attr {
        key: "dtype"
        value {
          type: DT_FLOAT
        }
      }
    }
    node {
      name: "MobilenetV3/expanded_conv_10/expand/weights"
      op: "VarHandleOp"
      attr {
        key: "_output_shapes"
        value {
          list {
            shape {
            }
          }
        }
      }
      attr {
        key: "dtype"
        value {
          type: DT_FLOAT
        }
      }
      attr {
        key: "shape"
        value {
          shape {
            dim {
              size: 1
            }
            dim {
              size: 1
            }
            dim {
              size: 96
            }
            dim {
              size: 576
            }
          }
        }
      }
      attr {
        key: "shared_name"
        value {
          s: "MobilenetV3/expanded_conv_10/expand/weights"
        }
      }
    }
    node {
      name: "MobilenetV3/expanded_conv_10/expand/weights/Read/ReadVariableOp"
      op: "ReadVariableOp"
      input: "MobilenetV3/expanded_conv_10/expand/weights"
      attr {
        key: "_output_shapes"
        value {
          list {
            shape {
              dim {
                size: 1
              }
              dim {
                size: 1
              }
              dim {
                size: 96
              }
              dim {
                size: 576
              }
            }
          }
        }
      }
      attr {
        key: "dtype"
        value {
          type: DT_FLOAT
        }
      }
    }
    node {
      name: "MobilenetV3/expanded_conv_10/project/BatchNorm/gamma"
      op: "VarHandleOp"
      attr {
        key: "_output_shapes"
        value {
          list {
            shape {
            }
          }
        }
      }
      attr {
        key: "dtype"
        value {
          type: DT_FLOAT
        }
      }
      attr {
        key: "shape"
        value {
          shape {
            dim {
              size: 96
            }
          }
        }
      }
      attr {
        key: "shared_name"
        value {
          s: "MobilenetV3/expanded_conv_10/project/BatchNorm/gamma"
        }
      }
    }
    node {
      name: "MobilenetV3/expanded_conv_10/project/BatchNorm/gamma/Read/ReadVariableOp"
      op: "ReadVariableOp"
      input: "MobilenetV3/expanded_conv_10/project/BatchNorm/gamma"
      attr {
        key: "_output_shapes"
        value {
          list {
            shape {
              dim {
                size: 96
              }
            }
          }
        }
      }
      attr {
        key: "dtype"
        value {
          type: DT_FLOAT
        }
      }
    }
    node {
      name: "MobilenetV3/Conv_1/BatchNorm/moving_variance"
      op: "VarHandleOp"
      attr {
        key: "_output_shapes"
        value {
          list {
            shape {
            }
          }
        }
      }
      attr {
        key: "dtype"
        value {
          type: DT_FLOAT
        }
      }
      attr {
        key: "shape"
        value {
          shape {
            dim {
              size: 576
            }
          }
        }
      }
      attr {
        key: "shared_name"
        value {
          s: "MobilenetV3/Conv_1/BatchNorm/moving_variance"
        }
      }
    }
    node {
      name: "MobilenetV3/Conv_1/BatchNorm/moving_variance/Read/ReadVariableOp"
      op: "ReadVariableOp"
      input: "MobilenetV3/Conv_1/BatchNorm/moving_variance"
      attr {
        key: "_output_shapes"
        value {
          list {
            shape {
              dim {
                size: 576
              }
            }
          }
        }
      }
      attr {
        key: "dtype"
        value {
          type: DT_FLOAT
        }
      }
    }
    node {
      name: "MobilenetV3/expanded_conv_10/depthwise/BatchNorm/moving_variance"
      op: "VarHandleOp"
      attr {
        key: "_output_shapes"
        value {
          list {
            shape {
            }
          }
        }
      }
      attr {
        key: "dtype"
        value {
          type: DT_FLOAT
        }
      }
      attr {
        key: "shape"
        value {
          shape {
            dim {
              size: 576
            }
          }
        }
      }
      attr {
        key: "shared_name"
        value {
          s: "MobilenetV3/expanded_conv_10/depthwise/BatchNorm/moving_variance"
        }
      }
    }
    node {
      name: "MobilenetV3/expanded_conv_10/depthwise/BatchNorm/moving_variance/Read/ReadVariableOp"
      op: "ReadVariableOp"
      input: "MobilenetV3/expanded_conv_10/depthwise/BatchNorm/moving_variance"
      attr {
        key: "_output_shapes"
        value {
          list {
            shape {
              dim {
                size: 576
              }
            }
          }
        }
      }
      attr {
        key: "dtype"
        value {
          type: DT_FLOAT
        }
      }
    }
    node {
      name: "MobilenetV3/expanded_conv/depthwise/depthwise_weights"
      op: "VarHandleOp"
      attr {
        key: "_output_shapes"
        value {
          list {
            shape {
            }
          }
        }
      }
      attr {
        key: "dtype"
        value {
          type: DT_FLOAT
        }
      }
      attr {
        key: "shape"
        value {
          shape {
            dim {
              size: 3
            }
            dim {
              size: 3
            }
            dim {
              size: 16
            }
            dim {
              size: 1
            }
          }
        }
      }
      attr {
        key: "shared_name"
        value {
          s: "MobilenetV3/expanded_conv/depthwise/depthwise_weights"
        }
      }
    }
    node {
      name: "MobilenetV3/expanded_conv/depthwise/depthwise_weights/Read/ReadVariableOp"
      op: "ReadVariableOp"
      input: "MobilenetV3/expanded_conv/depthwise/depthwise_weights"
      attr {
        key: "_output_shapes"
        value {
          list {
            shape {
              dim {
                size: 3
              }
              dim {
                size: 3
              }
              dim {
                size: 16
              }
              dim {
                size: 1
              }
            }
          }
        }
      }
      attr {
        key: "dtype"
        value {
          type: DT_FLOAT
        }
      }
    }
    node {
      name: "MobilenetV3/expanded_conv/squeeze_excite/Conv_1/weights"
      op: "VarHandleOp"
      attr {
        key: "_output_shapes"
        value {
          list {
            shape {
            }
          }
        }
      }
      attr {
        key: "dtype"
        value {
          type: DT_FLOAT
        }
      }
      attr {
        key: "shape"
        value {
          shape {
            dim {
              size: 1
            }
            dim {
              size: 1
            }
            dim {
              size: 8
            }
            dim {
              size: 16
            }
          }
        }
      }
      attr {
        key: "shared_name"
        value {
          s: "MobilenetV3/expanded_conv/squeeze_excite/Conv_1/weights"
        }
      }
    }
    node {
      name: "MobilenetV3/expanded_conv/squeeze_excite/Conv_1/weights/Read/ReadVariableOp"
      op: "ReadVariableOp"
      input: "MobilenetV3/expanded_conv/squeeze_excite/Conv_1/weights"
      attr {
        key: "_output_shapes"
        value {
          list {
            shape {
              dim {
                size: 1
              }
              dim {
                size: 1
              }
              dim {
                size: 8
              }
              dim {
                size: 16
              }
            }
          }
        }
      }
      attr {
        key: "dtype"
        value {
          type: DT_FLOAT
        }
      }
    }
    node {
      name: "MobilenetV3/expanded_conv_3/expand/BatchNorm/moving_mean"
      op: "VarHandleOp"
      attr {
        key: "_output_shapes"
        value {
          list {
            shape {
            }
          }
        }
      }
      attr {
        key: "dtype"
        value {
          type: DT_FLOAT
        }
      }
      attr {
        key: "shape"
        value {
          shape {
            dim {
              size: 96
            }
          }
        }
      }
      attr {
        key: "shared_name"
        value {
          s: "MobilenetV3/expanded_conv_3/expand/BatchNorm/moving_mean"
        }
      }
    }
    node {
      name: "MobilenetV3/expanded_conv_3/expand/BatchNorm/moving_mean/Read/ReadVariableOp"
      op: "ReadVariableOp"
      input: "MobilenetV3/expanded_conv_3/expand/BatchNorm/moving_mean"
      attr {
        key: "_output_shapes"
        value {
          list {
            shape {
              dim {
                size: 96
              }
            }
          }
        }
      }
      attr {
        key: "dtype"
        value {
          type: DT_FLOAT
        }
      }
    }
    node {
      name: "MobilenetV3/expanded_conv_6/expand/BatchNorm/gamma"
      op: "VarHandleOp"
      attr {
        key: "_output_shapes"
        value {
          list {
            shape {
            }
          }
        }
      }
      attr {
        key: "dtype"
        value {
          type: DT_FLOAT
        }
      }
      attr {
        key: "shape"
        value {
          shape {
            dim {
              size: 120
            }
          }
        }
      }
      attr {
        key: "shared_name"
        value {
          s: "MobilenetV3/expanded_conv_6/expand/BatchNorm/gamma"
        }
      }
    }
    node {
      name: "MobilenetV3/expanded_conv_6/expand/BatchNorm/gamma/Read/ReadVariableOp"
      op: "ReadVariableOp"
      input: "MobilenetV3/expanded_conv_6/expand/BatchNorm/gamma"
      attr {
        key: "_output_shapes"
        value {
          list {
            shape {
              dim {
                size: 120
              }
            }
          }
        }
      }
      attr {
        key: "dtype"
        value {
          type: DT_FLOAT
        }
      }
    }
    node {
      name: "MobilenetV3/expanded_conv_8/depthwise/BatchNorm/moving_mean"
      op: "VarHandleOp"
      attr {
        key: "_output_shapes"
        value {
          list {
            shape {
            }
          }
        }
      }
      attr {
        key: "dtype"
        value {
          type: DT_FLOAT
        }
      }
      attr {
        key: "shape"
        value {
          shape {
            dim {
              size: 288
            }
          }
        }
      }
      attr {
        key: "shared_name"
        value {
          s: "MobilenetV3/expanded_conv_8/depthwise/BatchNorm/moving_mean"
        }
      }
    }
    node {
      name: "MobilenetV3/expanded_conv_8/depthwise/BatchNorm/moving_mean/Read/ReadVariableOp"
      op: "ReadVariableOp"
      input: "MobilenetV3/expanded_conv_8/depthwise/BatchNorm/moving_mean"
      attr {
        key: "_output_shapes"
        value {
          list {
            shape {
              dim {
                size: 288
              }
            }
          }
        }
      }
      attr {
        key: "dtype"
        value {
          type: DT_FLOAT
        }
      }
    }
    node {
      name: "MobilenetV3/expanded_conv_3/squeeze_excite/Conv_1/biases"
      op: "VarHandleOp"
      attr {
        key: "_output_shapes"
        value {
          list {
            shape {
            }
          }
        }
      }
      attr {
        key: "dtype"
        value {
          type: DT_FLOAT
        }
      }
      attr {
        key: "shape"
        value {
          shape {
            dim {
              size: 96
            }
          }
        }
      }
      attr {
        key: "shared_name"
        value {
          s: "MobilenetV3/expanded_conv_3/squeeze_excite/Conv_1/biases"
        }
      }
    }
    node {
      name: "MobilenetV3/expanded_conv_3/squeeze_excite/Conv_1/biases/Read/ReadVariableOp"
      op: "ReadVariableOp"
      input: "MobilenetV3/expanded_conv_3/squeeze_excite/Conv_1/biases"
      attr {
        key: "_output_shapes"
        value {
          list {
            shape {
              dim {
                size: 96
              }
            }
          }
        }
      }
      attr {
        key: "dtype"
        value {
          type: DT_FLOAT
        }
      }
    }
    node {
      name: "MobilenetV3/expanded_conv_5/depthwise/BatchNorm/moving_mean"
      op: "VarHandleOp"
      attr {
        key: "_output_shapes"
        value {
          list {
            shape {
            }
          }
        }
      }
      attr {
        key: "dtype"
        value {
          type: DT_FLOAT
        }
      }
      attr {
        key: "shape"
        value {
          shape {
            dim {
              size: 240
            }
          }
        }
      }
      attr {
        key: "shared_name"
        value {
          s: "MobilenetV3/expanded_conv_5/depthwise/BatchNorm/moving_mean"
        }
      }
    }
    node {
      name: "MobilenetV3/expanded_conv_5/depthwise/BatchNorm/moving_mean/Read/ReadVariableOp"
      op: "ReadVariableOp"
      input: "MobilenetV3/expanded_conv_5/depthwise/BatchNorm/moving_mean"
      attr {
        key: "_output_shapes"
        value {
          list {
            shape {
              dim {
                size: 240
              }
            }
          }
        }
      }
      attr {
        key: "dtype"
        value {
          type: DT_FLOAT
        }
      }
    }
    node {
      name: "MobilenetV3/expanded_conv_9/squeeze_excite/Conv_1/weights"
      op: "VarHandleOp"
      attr {
        key: "_output_shapes"
        value {
          list {
            shape {
            }
          }
        }
      }
      attr {
        key: "dtype"
        value {
          type: DT_FLOAT
        }
      }
      attr {
        key: "shape"
        value {
          shape {
            dim {
              size: 1
            }
            dim {
              size: 1
            }
            dim {
              size: 144
            }
            dim {
              size: 576
            }
          }
        }
      }
      attr {
        key: "shared_name"
        value {
          s: "MobilenetV3/expanded_conv_9/squeeze_excite/Conv_1/weights"
        }
      }
    }
    node {
      name: "MobilenetV3/expanded_conv_9/squeeze_excite/Conv_1/weights/Read/ReadVariableOp"
      op: "ReadVariableOp"
      input: "MobilenetV3/expanded_conv_9/squeeze_excite/Conv_1/weights"
      attr {
        key: "_output_shapes"
        value {
          list {
            shape {
              dim {
                size: 1
              }
              dim {
                size: 1
              }
              dim {
                size: 144
              }
              dim {
                size: 576
              }
            }
          }
        }
      }
      attr {
        key: "dtype"
        value {
          type: DT_FLOAT
        }
      }
    }
    node {
      name: "MobilenetV3/expanded_conv_1/project/weights"
      op: "VarHandleOp"
      attr {
        key: "_output_shapes"
        value {
          list {
            shape {
            }
          }
        }
      }
      attr {
        key: "dtype"
        value {
          type: DT_FLOAT
        }
      }
      attr {
        key: "shape"
        value {
          shape {
            dim {
              size: 1
            }
            dim {
              size: 1
            }
            dim {
              size: 72
            }
            dim {
              size: 24
            }
          }
        }
      }
      attr {
        key: "shared_name"
        value {
          s: "MobilenetV3/expanded_conv_1/project/weights"
        }
      }
    }
    node {
      name: "MobilenetV3/expanded_conv_1/project/weights/Read/ReadVariableOp"
      op: "ReadVariableOp"
      input: "MobilenetV3/expanded_conv_1/project/weights"
      attr {
        key: "_output_shapes"
        value {
          list {
            shape {
              dim {
                size: 1
              }
              dim {
                size: 1
              }
              dim {
                size: 72
              }
              dim {
                size: 24
              }
            }
          }
        }
      }
      attr {
        key: "dtype"
        value {
          type: DT_FLOAT
        }
      }
    }
    node {
      name: "MobilenetV3/expanded_conv_1/project/BatchNorm/beta"
      op: "VarHandleOp"
      attr {
        key: "_output_shapes"
        value {
          list {
            shape {
            }
          }
        }
      }
      attr {
        key: "dtype"
        value {
          type: DT_FLOAT
        }
      }
      attr {
        key: "shape"
        value {
          shape {
            dim {
              size: 24
            }
          }
        }
      }
      attr {
        key: "shared_name"
        value {
          s: "MobilenetV3/expanded_conv_1/project/BatchNorm/beta"
        }
      }
    }
    node {
      name: "MobilenetV3/expanded_conv_1/project/BatchNorm/beta/Read/ReadVariableOp"
      op: "ReadVariableOp"
      input: "MobilenetV3/expanded_conv_1/project/BatchNorm/beta"
      attr {
        key: "_output_shapes"
        value {
          list {
            shape {
              dim {
                size: 24
              }
            }
          }
        }
      }
      attr {
        key: "dtype"
        value {
          type: DT_FLOAT
        }
      }
    }
    node {
      name: "MobilenetV3/expanded_conv/depthwise/BatchNorm/gamma"
      op: "VarHandleOp"
      attr {
        key: "_output_shapes"
        value {
          list {
            shape {
            }
          }
        }
      }
      attr {
        key: "dtype"
        value {
          type: DT_FLOAT
        }
      }
      attr {
        key: "shape"
        value {
          shape {
            dim {
              size: 16
            }
          }
        }
      }
      attr {
        key: "shared_name"
        value {
          s: "MobilenetV3/expanded_conv/depthwise/BatchNorm/gamma"
        }
      }
    }
    node {
      name: "MobilenetV3/expanded_conv/depthwise/BatchNorm/gamma/Read/ReadVariableOp"
      op: "ReadVariableOp"
      input: "MobilenetV3/expanded_conv/depthwise/BatchNorm/gamma"
      attr {
        key: "_output_shapes"
        value {
          list {
            shape {
              dim {
                size: 16
              }
            }
          }
        }
      }
      attr {
        key: "dtype"
        value {
          type: DT_FLOAT
        }
      }
    }
    node {
      name: "MobilenetV3/expanded_conv_5/depthwise/BatchNorm/moving_variance"
      op: "VarHandleOp"
      attr {
        key: "_output_shapes"
        value {
          list {
            shape {
            }
          }
        }
      }
      attr {
        key: "dtype"
        value {
          type: DT_FLOAT
        }
      }
      attr {
        key: "shape"
        value {
          shape {
            dim {
              size: 240
            }
          }
        }
      }
      attr {
        key: "shared_name"
        value {
          s: "MobilenetV3/expanded_conv_5/depthwise/BatchNorm/moving_variance"
        }
      }
    }
    node {
      name: "MobilenetV3/expanded_conv_5/depthwise/BatchNorm/moving_variance/Read/ReadVariableOp"
      op: "ReadVariableOp"
      input: "MobilenetV3/expanded_conv_5/depthwise/BatchNorm/moving_variance"
      attr {
        key: "_output_shapes"
        value {
          list {
            shape {
              dim {
                size: 240
              }
            }
          }
        }
      }
      attr {
        key: "dtype"
        value {
          type: DT_FLOAT
        }
      }
    }
    node {
      name: "MobilenetV3/expanded_conv_6/project/BatchNorm/moving_variance"
      op: "VarHandleOp"
      attr {
        key: "_output_shapes"
        value {
          list {
            shape {
            }
          }
        }
      }
      attr {
        key: "dtype"
        value {
          type: DT_FLOAT
        }
      }
      attr {
        key: "shape"
        value {
          shape {
            dim {
              size: 48
            }
          }
        }
      }
      attr {
        key: "shared_name"
        value {
          s: "MobilenetV3/expanded_conv_6/project/BatchNorm/moving_variance"
        }
      }
    }
    node {
      name: "MobilenetV3/expanded_conv_6/project/BatchNorm/moving_variance/Read/ReadVariableOp"
      op: "ReadVariableOp"
      input: "MobilenetV3/expanded_conv_6/project/BatchNorm/moving_variance"
      attr {
        key: "_output_shapes"
        value {
          list {
            shape {
              dim {
                size: 48
              }
            }
          }
        }
      }
      attr {
        key: "dtype"
        value {
          type: DT_FLOAT
        }
      }
    }
    node {
      name: "MobilenetV3/expanded_conv_7/expand/BatchNorm/gamma"
      op: "VarHandleOp"
      attr {
        key: "_output_shapes"
        value {
          list {
            shape {
            }
          }
        }
      }
      attr {
        key: "dtype"
        value {
          type: DT_FLOAT
        }
      }
      attr {
        key: "shape"
        value {
          shape {
            dim {
              size: 144
            }
          }
        }
      }
      attr {
        key: "shared_name"
        value {
          s: "MobilenetV3/expanded_conv_7/expand/BatchNorm/gamma"
        }
      }
    }
    node {
      name: "MobilenetV3/expanded_conv_7/expand/BatchNorm/gamma/Read/ReadVariableOp"
      op: "ReadVariableOp"
      input: "MobilenetV3/expanded_conv_7/expand/BatchNorm/gamma"
      attr {
        key: "_output_shapes"
        value {
          list {
            shape {
              dim {
                size: 144
              }
            }
          }
        }
      }
      attr {
        key: "dtype"
        value {
          type: DT_FLOAT
        }
      }
    }
    node {
      name: "MobilenetV3/expanded_conv_8/project/BatchNorm/moving_variance"
      op: "VarHandleOp"
      attr {
        key: "_output_shapes"
        value {
          list {
            shape {
            }
          }
        }
      }
      attr {
        key: "dtype"
        value {
          type: DT_FLOAT
        }
      }
      attr {
        key: "shape"
        value {
          shape {
            dim {
              size: 96
            }
          }
        }
      }
      attr {
        key: "shared_name"
        value {
          s: "MobilenetV3/expanded_conv_8/project/BatchNorm/moving_variance"
        }
      }
    }
    node {
      name: "MobilenetV3/expanded_conv_8/project/BatchNorm/moving_variance/Read/ReadVariableOp"
      op: "ReadVariableOp"
      input: "MobilenetV3/expanded_conv_8/project/BatchNorm/moving_variance"
      attr {
        key: "_output_shapes"
        value {
          list {
            shape {
              dim {
                size: 96
              }
            }
          }
        }
      }
      attr {
        key: "dtype"
        value {
          type: DT_FLOAT
        }
      }
    }
    node {
      name: "MobilenetV3/expanded_conv/project/BatchNorm/gamma"
      op: "VarHandleOp"
      attr {
        key: "_output_shapes"
        value {
          list {
            shape {
            }
          }
        }
      }
      attr {
        key: "dtype"
        value {
          type: DT_FLOAT
        }
      }
      attr {
        key: "shape"
        value {
          shape {
            dim {
              size: 16
            }
          }
        }
      }
      attr {
        key: "shared_name"
        value {
          s: "MobilenetV3/expanded_conv/project/BatchNorm/gamma"
        }
      }
    }
    node {
      name: "MobilenetV3/expanded_conv/project/BatchNorm/gamma/Read/ReadVariableOp"
      op: "ReadVariableOp"
      input: "MobilenetV3/expanded_conv/project/BatchNorm/gamma"
      attr {
        key: "_output_shapes"
        value {
          list {
            shape {
              dim {
                size: 16
              }
            }
          }
        }
      }
      attr {
        key: "dtype"
        value {
          type: DT_FLOAT
        }
      }
    }
    node {
      name: "MobilenetV3/expanded_conv_2/depthwise/BatchNorm/moving_mean"
      op: "VarHandleOp"
      attr {
        key: "_output_shapes"
        value {
          list {
            shape {
            }
          }
        }
      }
      attr {
        key: "dtype"
        value {
          type: DT_FLOAT
        }
      }
      attr {
        key: "shape"
        value {
          shape {
            dim {
              size: 88
            }
          }
        }
      }
      attr {
        key: "shared_name"
        value {
          s: "MobilenetV3/expanded_conv_2/depthwise/BatchNorm/moving_mean"
        }
      }
    }
    node {
      name: "MobilenetV3/expanded_conv_2/depthwise/BatchNorm/moving_mean/Read/ReadVariableOp"
      op: "ReadVariableOp"
      input: "MobilenetV3/expanded_conv_2/depthwise/BatchNorm/moving_mean"
      attr {
        key: "_output_shapes"
        value {
          list {
            shape {
              dim {
                size: 88
              }
            }
          }
        }
      }
      attr {
        key: "dtype"
        value {
          type: DT_FLOAT
        }
      }
    }
    node {
      name: "MobilenetV3/expanded_conv_4/squeeze_excite/Conv/weights"
      op: "VarHandleOp"
      attr {
        key: "_output_shapes"
        value {
          list {
            shape {
            }
          }
        }
      }
      attr {
        key: "dtype"
        value {
          type: DT_FLOAT
        }
      }
      attr {
        key: "shape"
        value {
          shape {
            dim {
              size: 1
            }
            dim {
              size: 1
            }
            dim {
              size: 240
            }
            dim {
              size: 64
            }
          }
        }
      }
      attr {
        key: "shared_name"
        value {
          s: "MobilenetV3/expanded_conv_4/squeeze_excite/Conv/weights"
        }
      }
    }
    node {
      name: "MobilenetV3/expanded_conv_4/squeeze_excite/Conv/weights/Read/ReadVariableOp"
      op: "ReadVariableOp"
      input: "MobilenetV3/expanded_conv_4/squeeze_excite/Conv/weights"
      attr {
        key: "_output_shapes"
        value {
          list {
            shape {
              dim {
                size: 1
              }
              dim {
                size: 1
              }
              dim {
                size: 240
              }
              dim {
                size: 64
              }
            }
          }
        }
      }
      attr {
        key: "dtype"
        value {
          type: DT_FLOAT
        }
      }
    }
    node {
      name: "MobilenetV3/expanded_conv_6/depthwise/BatchNorm/moving_mean"
      op: "VarHandleOp"
      attr {
        key: "_output_shapes"
        value {
          list {
            shape {
            }
          }
        }
      }
      attr {
        key: "dtype"
        value {
          type: DT_FLOAT
        }
      }
      attr {
        key: "shape"
        value {
          shape {
            dim {
              size: 120
            }
          }
        }
      }
      attr {
        key: "shared_name"
        value {
          s: "MobilenetV3/expanded_conv_6/depthwise/BatchNorm/moving_mean"
        }
      }
    }
    node {
      name: "MobilenetV3/expanded_conv_6/depthwise/BatchNorm/moving_mean/Read/ReadVariableOp"
      op: "ReadVariableOp"
      input: "MobilenetV3/expanded_conv_6/depthwise/BatchNorm/moving_mean"
      attr {
        key: "_output_shapes"
        value {
          list {
            shape {
              dim {
                size: 120
              }
            }
          }
        }
      }
      attr {
        key: "dtype"
        value {
          type: DT_FLOAT
        }
      }
    }
    node {
      name: "MobilenetV3/expanded_conv_10/squeeze_excite/Conv_1/weights"
      op: "VarHandleOp"
      attr {
        key: "_output_shapes"
        value {
          list {
            shape {
            }
          }
        }
      }
      attr {
        key: "dtype"
        value {
          type: DT_FLOAT
        }
      }
      attr {
        key: "shape"
        value {
          shape {
            dim {
              size: 1
            }
            dim {
              size: 1
            }
            dim {
              size: 144
            }
            dim {
              size: 576
            }
          }
        }
      }
      attr {
        key: "shared_name"
        value {
          s: "MobilenetV3/expanded_conv_10/squeeze_excite/Conv_1/weights"
        }
      }
    }
    node {
      name: "MobilenetV3/expanded_conv_10/squeeze_excite/Conv_1/weights/Read/ReadVariableOp"
      op: "ReadVariableOp"
      input: "MobilenetV3/expanded_conv_10/squeeze_excite/Conv_1/weights"
      attr {
        key: "_output_shapes"
        value {
          list {
            shape {
              dim {
                size: 1
              }
              dim {
                size: 1
              }
              dim {
                size: 144
              }
              dim {
                size: 576
              }
            }
          }
        }
      }
      attr {
        key: "dtype"
        value {
          type: DT_FLOAT
        }
      }
    }
    node {
      name: "MobilenetV3/expanded_conv_1/depthwise/depthwise_weights"
      op: "VarHandleOp"
      attr {
        key: "_output_shapes"
        value {
          list {
            shape {
            }
          }
        }
      }
      attr {
        key: "dtype"
        value {
          type: DT_FLOAT
        }
      }
      attr {
        key: "shape"
        value {
          shape {
            dim {
              size: 3
            }
            dim {
              size: 3
            }
            dim {
              size: 72
            }
            dim {
              size: 1
            }
          }
        }
      }
      attr {
        key: "shared_name"
        value {
          s: "MobilenetV3/expanded_conv_1/depthwise/depthwise_weights"
        }
      }
    }
    node {
      name: "MobilenetV3/expanded_conv_1/depthwise/depthwise_weights/Read/ReadVariableOp"
      op: "ReadVariableOp"
      input: "MobilenetV3/expanded_conv_1/depthwise/depthwise_weights"
      attr {
        key: "_output_shapes"
        value {
          list {
            shape {
              dim {
                size: 3
              }
              dim {
                size: 3
              }
              dim {
                size: 72
              }
              dim {
                size: 1
              }
            }
          }
        }
      }
      attr {
        key: "dtype"
        value {
          type: DT_FLOAT
        }
      }
    }
    node {
      name: "MobilenetV3/expanded_conv_2/expand/BatchNorm/moving_variance"
      op: "VarHandleOp"
      attr {
        key: "_output_shapes"
        value {
          list {
            shape {
            }
          }
        }
      }
      attr {
        key: "dtype"
        value {
          type: DT_FLOAT
        }
      }
      attr {
        key: "shape"
        value {
          shape {
            dim {
              size: 88
            }
          }
        }
      }
      attr {
        key: "shared_name"
        value {
          s: "MobilenetV3/expanded_conv_2/expand/BatchNorm/moving_variance"
        }
      }
    }
    node {
      name: "MobilenetV3/expanded_conv_2/expand/BatchNorm/moving_variance/Read/ReadVariableOp"
      op: "ReadVariableOp"
      input: "MobilenetV3/expanded_conv_2/expand/BatchNorm/moving_variance"
      attr {
        key: "_output_shapes"
        value {
          list {
            shape {
              dim {
                size: 88
              }
            }
          }
        }
      }
      attr {
        key: "dtype"
        value {
          type: DT_FLOAT
        }
      }
    }
    node {
      name: "MobilenetV3/expanded_conv_2/project/weights"
      op: "VarHandleOp"
      attr {
        key: "_output_shapes"
        value {
          list {
            shape {
            }
          }
        }
      }
      attr {
        key: "dtype"
        value {
          type: DT_FLOAT
        }
      }
      attr {
        key: "shape"
        value {
          shape {
            dim {
              size: 1
            }
            dim {
              size: 1
            }
            dim {
              size: 88
            }
            dim {
              size: 24
            }
          }
        }
      }
      attr {
        key: "shared_name"
        value {
          s: "MobilenetV3/expanded_conv_2/project/weights"
        }
      }
    }
    node {
      name: "MobilenetV3/expanded_conv_2/project/weights/Read/ReadVariableOp"
      op: "ReadVariableOp"
      input: "MobilenetV3/expanded_conv_2/project/weights"
      attr {
        key: "_output_shapes"
        value {
          list {
            shape {
              dim {
                size: 1
              }
              dim {
                size: 1
              }
              dim {
                size: 88
              }
              dim {
                size: 24
              }
            }
          }
        }
      }
      attr {
        key: "dtype"
        value {
          type: DT_FLOAT
        }
      }
    }
    node {
      name: "MobilenetV3/expanded_conv_4/expand/BatchNorm/beta"
      op: "VarHandleOp"
      attr {
        key: "_output_shapes"
        value {
          list {
            shape {
            }
          }
        }
      }
      attr {
        key: "dtype"
        value {
          type: DT_FLOAT
        }
      }
      attr {
        key: "shape"
        value {
          shape {
            dim {
              size: 240
            }
          }
        }
      }
      attr {
        key: "shared_name"
        value {
          s: "MobilenetV3/expanded_conv_4/expand/BatchNorm/beta"
        }
      }
    }
    node {
      name: "MobilenetV3/expanded_conv_4/expand/BatchNorm/beta/Read/ReadVariableOp"
      op: "ReadVariableOp"
      input: "MobilenetV3/expanded_conv_4/expand/BatchNorm/beta"
      attr {
        key: "_output_shapes"
        value {
          list {
            shape {
              dim {
                size: 240
              }
            }
          }
        }
      }
      attr {
        key: "dtype"
        value {
          type: DT_FLOAT
        }
      }
    }
    node {
      name: "MobilenetV3/expanded_conv_4/project/BatchNorm/beta"
      op: "VarHandleOp"
      attr {
        key: "_output_shapes"
        value {
          list {
            shape {
            }
          }
        }
      }
      attr {
        key: "dtype"
        value {
          type: DT_FLOAT
        }
      }
      attr {
        key: "shape"
        value {
          shape {
            dim {
              size: 40
            }
          }
        }
      }
      attr {
        key: "shared_name"
        value {
          s: "MobilenetV3/expanded_conv_4/project/BatchNorm/beta"
        }
      }
    }
    node {
      name: "MobilenetV3/expanded_conv_4/project/BatchNorm/beta/Read/ReadVariableOp"
      op: "ReadVariableOp"
      input: "MobilenetV3/expanded_conv_4/project/BatchNorm/beta"
      attr {
        key: "_output_shapes"
        value {
          list {
            shape {
              dim {
                size: 40
              }
            }
          }
        }
      }
      attr {
        key: "dtype"
        value {
          type: DT_FLOAT
        }
      }
    }
    node {
      name: "MobilenetV3/expanded_conv_5/project/BatchNorm/moving_variance"
      op: "VarHandleOp"
      attr {
        key: "_output_shapes"
        value {
          list {
            shape {
            }
          }
        }
      }
      attr {
        key: "dtype"
        value {
          type: DT_FLOAT
        }
      }
      attr {
        key: "shape"
        value {
          shape {
            dim {
              size: 40
            }
          }
        }
      }
      attr {
        key: "shared_name"
        value {
          s: "MobilenetV3/expanded_conv_5/project/BatchNorm/moving_variance"
        }
      }
    }
    node {
      name: "MobilenetV3/expanded_conv_5/project/BatchNorm/moving_variance/Read/ReadVariableOp"
      op: "ReadVariableOp"
      input: "MobilenetV3/expanded_conv_5/project/BatchNorm/moving_variance"
      attr {
        key: "_output_shapes"
        value {
          list {
            shape {
              dim {
                size: 40
              }
            }
          }
        }
      }
      attr {
        key: "dtype"
        value {
          type: DT_FLOAT
        }
      }
    }
    node {
      name: "MobilenetV3/expanded_conv_6/project/BatchNorm/beta"
      op: "VarHandleOp"
      attr {
        key: "_output_shapes"
        value {
          list {
            shape {
            }
          }
        }
      }
      attr {
        key: "dtype"
        value {
          type: DT_FLOAT
        }
      }
      attr {
        key: "shape"
        value {
          shape {
            dim {
              size: 48
            }
          }
        }
      }
      attr {
        key: "shared_name"
        value {
          s: "MobilenetV3/expanded_conv_6/project/BatchNorm/beta"
        }
      }
    }
    node {
      name: "MobilenetV3/expanded_conv_6/project/BatchNorm/beta/Read/ReadVariableOp"
      op: "ReadVariableOp"
      input: "MobilenetV3/expanded_conv_6/project/BatchNorm/beta"
      attr {
        key: "_output_shapes"
        value {
          list {
            shape {
              dim {
                size: 48
              }
            }
          }
        }
      }
      attr {
        key: "dtype"
        value {
          type: DT_FLOAT
        }
      }
    }
    node {
      name: "MobilenetV3/expanded_conv_8/expand/BatchNorm/gamma"
      op: "VarHandleOp"
      attr {
        key: "_output_shapes"
        value {
          list {
            shape {
            }
          }
        }
      }
      attr {
        key: "dtype"
        value {
          type: DT_FLOAT
        }
      }
      attr {
        key: "shape"
        value {
          shape {
            dim {
              size: 288
            }
          }
        }
      }
      attr {
        key: "shared_name"
        value {
          s: "MobilenetV3/expanded_conv_8/expand/BatchNorm/gamma"
        }
      }
    }
    node {
      name: "MobilenetV3/expanded_conv_8/expand/BatchNorm/gamma/Read/ReadVariableOp"
      op: "ReadVariableOp"
      input: "MobilenetV3/expanded_conv_8/expand/BatchNorm/gamma"
      attr {
        key: "_output_shapes"
        value {
          list {
            shape {
              dim {
                size: 288
              }
            }
          }
        }
      }
      attr {
        key: "dtype"
        value {
          type: DT_FLOAT
        }
      }
    }
    node {
      name: "MobilenetV3/expanded_conv_8/squeeze_excite/Conv/weights"
      op: "VarHandleOp"
      attr {
        key: "_output_shapes"
        value {
          list {
            shape {
            }
          }
        }
      }
      attr {
        key: "dtype"
        value {
          type: DT_FLOAT
        }
      }
      attr {
        key: "shape"
        value {
          shape {
            dim {
              size: 1
            }
            dim {
              size: 1
            }
            dim {
              size: 288
            }
            dim {
              size: 72
            }
          }
        }
      }
      attr {
        key: "shared_name"
        value {
          s: "MobilenetV3/expanded_conv_8/squeeze_excite/Conv/weights"
        }
      }
    }
    node {
      name: "MobilenetV3/expanded_conv_8/squeeze_excite/Conv/weights/Read/ReadVariableOp"
      op: "ReadVariableOp"
      input: "MobilenetV3/expanded_conv_8/squeeze_excite/Conv/weights"
      attr {
        key: "_output_shapes"
        value {
          list {
            shape {
              dim {
                size: 1
              }
              dim {
                size: 1
              }
              dim {
                size: 288
              }
              dim {
                size: 72
              }
            }
          }
        }
      }
      attr {
        key: "dtype"
        value {
          type: DT_FLOAT
        }
      }
    }
    node {
      name: "MobilenetV3/expanded_conv_9/depthwise/BatchNorm/moving_mean"
      op: "VarHandleOp"
      attr {
        key: "_output_shapes"
        value {
          list {
            shape {
            }
          }
        }
      }
      attr {
        key: "dtype"
        value {
          type: DT_FLOAT
        }
      }
      attr {
        key: "shape"
        value {
          shape {
            dim {
              size: 576
            }
          }
        }
      }
      attr {
        key: "shared_name"
        value {
          s: "MobilenetV3/expanded_conv_9/depthwise/BatchNorm/moving_mean"
        }
      }
    }
    node {
      name: "MobilenetV3/expanded_conv_9/depthwise/BatchNorm/moving_mean/Read/ReadVariableOp"
      op: "ReadVariableOp"
      input: "MobilenetV3/expanded_conv_9/depthwise/BatchNorm/moving_mean"
      attr {
        key: "_output_shapes"
        value {
          list {
            shape {
              dim {
                size: 576
              }
            }
          }
        }
      }
      attr {
        key: "dtype"
        value {
          type: DT_FLOAT
        }
      }
    }
    node {
      name: "MobilenetV3/expanded_conv_2/depthwise/BatchNorm/gamma"
      op: "VarHandleOp"
      attr {
        key: "_output_shapes"
        value {
          list {
            shape {
            }
          }
        }
      }
      attr {
        key: "dtype"
        value {
          type: DT_FLOAT
        }
      }
      attr {
        key: "shape"
        value {
          shape {
            dim {
              size: 88
            }
          }
        }
      }
      attr {
        key: "shared_name"
        value {
          s: "MobilenetV3/expanded_conv_2/depthwise/BatchNorm/gamma"
        }
      }
    }
    node {
      name: "MobilenetV3/expanded_conv_2/depthwise/BatchNorm/gamma/Read/ReadVariableOp"
      op: "ReadVariableOp"
      input: "MobilenetV3/expanded_conv_2/depthwise/BatchNorm/gamma"
      attr {
        key: "_output_shapes"
        value {
          list {
            shape {
              dim {
                size: 88
              }
            }
          }
        }
      }
      attr {
        key: "dtype"
        value {
          type: DT_FLOAT
        }
      }
    }
    node {
      name: "MobilenetV3/expanded_conv_4/expand/BatchNorm/gamma"
      op: "VarHandleOp"
      attr {
        key: "_output_shapes"
        value {
          list {
            shape {
            }
          }
        }
      }
      attr {
        key: "dtype"
        value {
          type: DT_FLOAT
        }
      }
      attr {
        key: "shape"
        value {
          shape {
            dim {
              size: 240
            }
          }
        }
      }
      attr {
        key: "shared_name"
        value {
          s: "MobilenetV3/expanded_conv_4/expand/BatchNorm/gamma"
        }
      }
    }
    node {
      name: "MobilenetV3/expanded_conv_4/expand/BatchNorm/gamma/Read/ReadVariableOp"
      op: "ReadVariableOp"
      input: "MobilenetV3/expanded_conv_4/expand/BatchNorm/gamma"
      attr {
        key: "_output_shapes"
        value {
          list {
            shape {
              dim {
                size: 240
              }
            }
          }
        }
      }
      attr {
        key: "dtype"
        value {
          type: DT_FLOAT
        }
      }
    }
    node {
      name: "MobilenetV3/expanded_conv_4/depthwise/BatchNorm/gamma"
      op: "VarHandleOp"
      attr {
        key: "_output_shapes"
        value {
          list {
            shape {
            }
          }
        }
      }
      attr {
        key: "dtype"
        value {
          type: DT_FLOAT
        }
      }
      attr {
        key: "shape"
        value {
          shape {
            dim {
              size: 240
            }
          }
        }
      }
      attr {
        key: "shared_name"
        value {
          s: "MobilenetV3/expanded_conv_4/depthwise/BatchNorm/gamma"
        }
      }
    }
    node {
      name: "MobilenetV3/expanded_conv_4/depthwise/BatchNorm/gamma/Read/ReadVariableOp"
      op: "ReadVariableOp"
      input: "MobilenetV3/expanded_conv_4/depthwise/BatchNorm/gamma"
      attr {
        key: "_output_shapes"
        value {
          list {
            shape {
              dim {
                size: 240
              }
            }
          }
        }
      }
      attr {
        key: "dtype"
        value {
          type: DT_FLOAT
        }
      }
    }
    node {
      name: "MobilenetV3/expanded_conv_5/expand/BatchNorm/moving_mean"
      op: "VarHandleOp"
      attr {
        key: "_output_shapes"
        value {
          list {
            shape {
            }
          }
        }
      }
      attr {
        key: "dtype"
        value {
          type: DT_FLOAT
        }
      }
      attr {
        key: "shape"
        value {
          shape {
            dim {
              size: 240
            }
          }
        }
      }
      attr {
        key: "shared_name"
        value {
          s: "MobilenetV3/expanded_conv_5/expand/BatchNorm/moving_mean"
        }
      }
    }
    node {
      name: "MobilenetV3/expanded_conv_5/expand/BatchNorm/moving_mean/Read/ReadVariableOp"
      op: "ReadVariableOp"
      input: "MobilenetV3/expanded_conv_5/expand/BatchNorm/moving_mean"
      attr {
        key: "_output_shapes"
        value {
          list {
            shape {
              dim {
                size: 240
              }
            }
          }
        }
      }
      attr {
        key: "dtype"
        value {
          type: DT_FLOAT
        }
      }
    }
    node {
      name: "MobilenetV3/expanded_conv_6/project/BatchNorm/moving_mean"
      op: "VarHandleOp"
      attr {
        key: "_output_shapes"
        value {
          list {
            shape {
            }
          }
        }
      }
      attr {
        key: "dtype"
        value {
          type: DT_FLOAT
        }
      }
      attr {
        key: "shape"
        value {
          shape {
            dim {
              size: 48
            }
          }
        }
      }
      attr {
        key: "shared_name"
        value {
          s: "MobilenetV3/expanded_conv_6/project/BatchNorm/moving_mean"
        }
      }
    }
    node {
      name: "MobilenetV3/expanded_conv_6/project/BatchNorm/moving_mean/Read/ReadVariableOp"
      op: "ReadVariableOp"
      input: "MobilenetV3/expanded_conv_6/project/BatchNorm/moving_mean"
      attr {
        key: "_output_shapes"
        value {
          list {
            shape {
              dim {
                size: 48
              }
            }
          }
        }
      }
      attr {
        key: "dtype"
        value {
          type: DT_FLOAT
        }
      }
    }
    node {
      name: "MobilenetV3/expanded_conv_8/squeeze_excite/Conv_1/weights"
      op: "VarHandleOp"
      attr {
        key: "_output_shapes"
        value {
          list {
            shape {
            }
          }
        }
      }
      attr {
        key: "dtype"
        value {
          type: DT_FLOAT
        }
      }
      attr {
        key: "shape"
        value {
          shape {
            dim {
              size: 1
            }
            dim {
              size: 1
            }
            dim {
              size: 72
            }
            dim {
              size: 288
            }
          }
        }
      }
      attr {
        key: "shared_name"
        value {
          s: "MobilenetV3/expanded_conv_8/squeeze_excite/Conv_1/weights"
        }
      }
    }
    node {
      name: "MobilenetV3/expanded_conv_8/squeeze_excite/Conv_1/weights/Read/ReadVariableOp"
      op: "ReadVariableOp"
      input: "MobilenetV3/expanded_conv_8/squeeze_excite/Conv_1/weights"
      attr {
        key: "_output_shapes"
        value {
          list {
            shape {
              dim {
                size: 1
              }
              dim {
                size: 1
              }
              dim {
                size: 72
              }
              dim {
                size: 288
              }
            }
          }
        }
      }
      attr {
        key: "dtype"
        value {
          type: DT_FLOAT
        }
      }
    }
    node {
      name: "MobilenetV3/expanded_conv_10/project/BatchNorm/beta"
      op: "VarHandleOp"
      attr {
        key: "_output_shapes"
        value {
          list {
            shape {
            }
          }
        }
      }
      attr {
        key: "dtype"
        value {
          type: DT_FLOAT
        }
      }
      attr {
        key: "shape"
        value {
          shape {
            dim {
              size: 96
            }
          }
        }
      }
      attr {
        key: "shared_name"
        value {
          s: "MobilenetV3/expanded_conv_10/project/BatchNorm/beta"
        }
      }
    }
    node {
      name: "MobilenetV3/expanded_conv_10/project/BatchNorm/beta/Read/ReadVariableOp"
      op: "ReadVariableOp"
      input: "MobilenetV3/expanded_conv_10/project/BatchNorm/beta"
      attr {
        key: "_output_shapes"
        value {
          list {
            shape {
              dim {
                size: 96
              }
            }
          }
        }
      }
      attr {
        key: "dtype"
        value {
          type: DT_FLOAT
        }
      }
    }
    node {
      name: "MobilenetV3/expanded_conv_2/expand/BatchNorm/moving_mean"
      op: "VarHandleOp"
      attr {
        key: "_output_shapes"
        value {
          list {
            shape {
            }
          }
        }
      }
      attr {
        key: "dtype"
        value {
          type: DT_FLOAT
        }
      }
      attr {
        key: "shape"
        value {
          shape {
            dim {
              size: 88
            }
          }
        }
      }
      attr {
        key: "shared_name"
        value {
          s: "MobilenetV3/expanded_conv_2/expand/BatchNorm/moving_mean"
        }
      }
    }
    node {
      name: "MobilenetV3/expanded_conv_2/expand/BatchNorm/moving_mean/Read/ReadVariableOp"
      op: "ReadVariableOp"
      input: "MobilenetV3/expanded_conv_2/expand/BatchNorm/moving_mean"
      attr {
        key: "_output_shapes"
        value {
          list {
            shape {
              dim {
                size: 88
              }
            }
          }
        }
      }
      attr {
        key: "dtype"
        value {
          type: DT_FLOAT
        }
      }
    }
    node {
      name: "MobilenetV3/expanded_conv_3/project/BatchNorm/beta"
      op: "VarHandleOp"
      attr {
        key: "_output_shapes"
        value {
          list {
            shape {
            }
          }
        }
      }
      attr {
        key: "dtype"
        value {
          type: DT_FLOAT
        }
      }
      attr {
        key: "shape"
        value {
          shape {
            dim {
              size: 40
            }
          }
        }
      }
      attr {
        key: "shared_name"
        value {
          s: "MobilenetV3/expanded_conv_3/project/BatchNorm/beta"
        }
      }
    }
    node {
      name: "MobilenetV3/expanded_conv_3/project/BatchNorm/beta/Read/ReadVariableOp"
      op: "ReadVariableOp"
      input: "MobilenetV3/expanded_conv_3/project/BatchNorm/beta"
      attr {
        key: "_output_shapes"
        value {
          list {
            shape {
              dim {
                size: 40
              }
            }
          }
        }
      }
      attr {
        key: "dtype"
        value {
          type: DT_FLOAT
        }
      }
    }
    node {
      name: "MobilenetV3/expanded_conv_5/expand/BatchNorm/moving_variance"
      op: "VarHandleOp"
      attr {
        key: "_output_shapes"
        value {
          list {
            shape {
            }
          }
        }
      }
      attr {
        key: "dtype"
        value {
          type: DT_FLOAT
        }
      }
      attr {
        key: "shape"
        value {
          shape {
            dim {
              size: 240
            }
          }
        }
      }
      attr {
        key: "shared_name"
        value {
          s: "MobilenetV3/expanded_conv_5/expand/BatchNorm/moving_variance"
        }
      }
    }
    node {
      name: "MobilenetV3/expanded_conv_5/expand/BatchNorm/moving_variance/Read/ReadVariableOp"
      op: "ReadVariableOp"
      input: "MobilenetV3/expanded_conv_5/expand/BatchNorm/moving_variance"
      attr {
        key: "_output_shapes"
        value {
          list {
            shape {
              dim {
                size: 240
              }
            }
          }
        }
      }
      attr {
        key: "dtype"
        value {
          type: DT_FLOAT
        }
      }
    }
    node {
      name: "MobilenetV3/expanded_conv_6/squeeze_excite/Conv_1/biases"
      op: "VarHandleOp"
      attr {
        key: "_output_shapes"
        value {
          list {
            shape {
            }
          }
        }
      }
      attr {
        key: "dtype"
        value {
          type: DT_FLOAT
        }
      }
      attr {
        key: "shape"
        value {
          shape {
            dim {
              size: 120
            }
          }
        }
      }
      attr {
        key: "shared_name"
        value {
          s: "MobilenetV3/expanded_conv_6/squeeze_excite/Conv_1/biases"
        }
      }
    }
    node {
      name: "MobilenetV3/expanded_conv_6/squeeze_excite/Conv_1/biases/Read/ReadVariableOp"
      op: "ReadVariableOp"
      input: "MobilenetV3/expanded_conv_6/squeeze_excite/Conv_1/biases"
      attr {
        key: "_output_shapes"
        value {
          list {
            shape {
              dim {
                size: 120
              }
            }
          }
        }
      }
      attr {
        key: "dtype"
        value {
          type: DT_FLOAT
        }
      }
    }
    node {
      name: "MobilenetV3/expanded_conv_9/expand/BatchNorm/gamma"
      op: "VarHandleOp"
      attr {
        key: "_output_shapes"
        value {
          list {
            shape {
            }
          }
        }
      }
      attr {
        key: "dtype"
        value {
          type: DT_FLOAT
        }
      }
      attr {
        key: "shape"
        value {
          shape {
            dim {
              size: 576
            }
          }
        }
      }
      attr {
        key: "shared_name"
        value {
          s: "MobilenetV3/expanded_conv_9/expand/BatchNorm/gamma"
        }
      }
    }
    node {
      name: "MobilenetV3/expanded_conv_9/expand/BatchNorm/gamma/Read/ReadVariableOp"
      op: "ReadVariableOp"
      input: "MobilenetV3/expanded_conv_9/expand/BatchNorm/gamma"
      attr {
        key: "_output_shapes"
        value {
          list {
            shape {
              dim {
                size: 576
              }
            }
          }
        }
      }
      attr {
        key: "dtype"
        value {
          type: DT_FLOAT
        }
      }
    }
    node {
      name: "MobilenetV3/Conv/BatchNorm/moving_variance"
      op: "VarHandleOp"
      attr {
        key: "_output_shapes"
        value {
          list {
            shape {
            }
          }
        }
      }
      attr {
        key: "dtype"
        value {
          type: DT_FLOAT
        }
      }
      attr {
        key: "shape"
        value {
          shape {
            dim {
              size: 16
            }
          }
        }
      }
      attr {
        key: "shared_name"
        value {
          s: "MobilenetV3/Conv/BatchNorm/moving_variance"
        }
      }
    }
    node {
      name: "MobilenetV3/Conv/BatchNorm/moving_variance/Read/ReadVariableOp"
      op: "ReadVariableOp"
      input: "MobilenetV3/Conv/BatchNorm/moving_variance"
      attr {
        key: "_output_shapes"
        value {
          list {
            shape {
              dim {
                size: 16
              }
            }
          }
        }
      }
      attr {
        key: "dtype"
        value {
          type: DT_FLOAT
        }
      }
    }
    node {
      name: "MobilenetV3/expanded_conv/depthwise/BatchNorm/moving_variance"
      op: "VarHandleOp"
      attr {
        key: "_output_shapes"
        value {
          list {
            shape {
            }
          }
        }
      }
      attr {
        key: "dtype"
        value {
          type: DT_FLOAT
        }
      }
      attr {
        key: "shape"
        value {
          shape {
            dim {
              size: 16
            }
          }
        }
      }
      attr {
        key: "shared_name"
        value {
          s: "MobilenetV3/expanded_conv/depthwise/BatchNorm/moving_variance"
        }
      }
    }
    node {
      name: "MobilenetV3/expanded_conv/depthwise/BatchNorm/moving_variance/Read/ReadVariableOp"
      op: "ReadVariableOp"
      input: "MobilenetV3/expanded_conv/depthwise/BatchNorm/moving_variance"
      attr {
        key: "_output_shapes"
        value {
          list {
            shape {
              dim {
                size: 16
              }
            }
          }
        }
      }
      attr {
        key: "dtype"
        value {
          type: DT_FLOAT
        }
      }
    }
    node {
      name: "MobilenetV3/expanded_conv/project/BatchNorm/moving_mean"
      op: "VarHandleOp"
      attr {
        key: "_output_shapes"
        value {
          list {
            shape {
            }
          }
        }
      }
      attr {
        key: "dtype"
        value {
          type: DT_FLOAT
        }
      }
      attr {
        key: "shape"
        value {
          shape {
            dim {
              size: 16
            }
          }
        }
      }
      attr {
        key: "shared_name"
        value {
          s: "MobilenetV3/expanded_conv/project/BatchNorm/moving_mean"
        }
      }
    }
    node {
      name: "MobilenetV3/expanded_conv/project/BatchNorm/moving_mean/Read/ReadVariableOp"
      op: "ReadVariableOp"
      input: "MobilenetV3/expanded_conv/project/BatchNorm/moving_mean"
      attr {
        key: "_output_shapes"
        value {
          list {
            shape {
              dim {
                size: 16
              }
            }
          }
        }
      }
      attr {
        key: "dtype"
        value {
          type: DT_FLOAT
        }
      }
    }
    node {
      name: "MobilenetV3/expanded_conv_1/expand/BatchNorm/moving_mean"
      op: "VarHandleOp"
      attr {
        key: "_output_shapes"
        value {
          list {
            shape {
            }
          }
        }
      }
      attr {
        key: "dtype"
        value {
          type: DT_FLOAT
        }
      }
      attr {
        key: "shape"
        value {
          shape {
            dim {
              size: 72
            }
          }
        }
      }
      attr {
        key: "shared_name"
        value {
          s: "MobilenetV3/expanded_conv_1/expand/BatchNorm/moving_mean"
        }
      }
    }
    node {
      name: "MobilenetV3/expanded_conv_1/expand/BatchNorm/moving_mean/Read/ReadVariableOp"
      op: "ReadVariableOp"
      input: "MobilenetV3/expanded_conv_1/expand/BatchNorm/moving_mean"
      attr {
        key: "_output_shapes"
        value {
          list {
            shape {
              dim {
                size: 72
              }
            }
          }
        }
      }
      attr {
        key: "dtype"
        value {
          type: DT_FLOAT
        }
      }
    }
    node {
      name: "MobilenetV3/expanded_conv_1/project/BatchNorm/moving_mean"
      op: "VarHandleOp"
      attr {
        key: "_output_shapes"
        value {
          list {
            shape {
            }
          }
        }
      }
      attr {
        key: "dtype"
        value {
          type: DT_FLOAT
        }
      }
      attr {
        key: "shape"
        value {
          shape {
            dim {
              size: 24
            }
          }
        }
      }
      attr {
        key: "shared_name"
        value {
          s: "MobilenetV3/expanded_conv_1/project/BatchNorm/moving_mean"
        }
      }
    }
    node {
      name: "MobilenetV3/expanded_conv_1/project/BatchNorm/moving_mean/Read/ReadVariableOp"
      op: "ReadVariableOp"
      input: "MobilenetV3/expanded_conv_1/project/BatchNorm/moving_mean"
      attr {
        key: "_output_shapes"
        value {
          list {
            shape {
              dim {
                size: 24
              }
            }
          }
        }
      }
      attr {
        key: "dtype"
        value {
          type: DT_FLOAT
        }
      }
    }
    node {
      name: "MobilenetV3/expanded_conv_2/project/BatchNorm/gamma"
      op: "VarHandleOp"
      attr {
        key: "_output_shapes"
        value {
          list {
            shape {
            }
          }
        }
      }
      attr {
        key: "dtype"
        value {
          type: DT_FLOAT
        }
      }
      attr {
        key: "shape"
        value {
          shape {
            dim {
              size: 24
            }
          }
        }
      }
      attr {
        key: "shared_name"
        value {
          s: "MobilenetV3/expanded_conv_2/project/BatchNorm/gamma"
        }
      }
    }
    node {
      name: "MobilenetV3/expanded_conv_2/project/BatchNorm/gamma/Read/ReadVariableOp"
      op: "ReadVariableOp"
      input: "MobilenetV3/expanded_conv_2/project/BatchNorm/gamma"
      attr {
        key: "_output_shapes"
        value {
          list {
            shape {
              dim {
                size: 24
              }
            }
          }
        }
      }
      attr {
        key: "dtype"
        value {
          type: DT_FLOAT
        }
      }
    }
    node {
      name: "MobilenetV3/expanded_conv_5/squeeze_excite/Conv/biases"
      op: "VarHandleOp"
      attr {
        key: "_output_shapes"
        value {
          list {
            shape {
            }
          }
        }
      }
      attr {
        key: "dtype"
        value {
          type: DT_FLOAT
        }
      }
      attr {
        key: "shape"
        value {
          shape {
            dim {
              size: 64
            }
          }
        }
      }
      attr {
        key: "shared_name"
        value {
          s: "MobilenetV3/expanded_conv_5/squeeze_excite/Conv/biases"
        }
      }
    }
    node {
      name: "MobilenetV3/expanded_conv_5/squeeze_excite/Conv/biases/Read/ReadVariableOp"
      op: "ReadVariableOp"
      input: "MobilenetV3/expanded_conv_5/squeeze_excite/Conv/biases"
      attr {
        key: "_output_shapes"
        value {
          list {
            shape {
              dim {
                size: 64
              }
            }
          }
        }
      }
      attr {
        key: "dtype"
        value {
          type: DT_FLOAT
        }
      }
    }
    node {
      name: "MobilenetV3/expanded_conv_6/squeeze_excite/Conv/biases"
      op: "VarHandleOp"
      attr {
        key: "_output_shapes"
        value {
          list {
            shape {
            }
          }
        }
      }
      attr {
        key: "dtype"
        value {
          type: DT_FLOAT
        }
      }
      attr {
        key: "shape"
        value {
          shape {
            dim {
              size: 32
            }
          }
        }
      }
      attr {
        key: "shared_name"
        value {
          s: "MobilenetV3/expanded_conv_6/squeeze_excite/Conv/biases"
        }
      }
    }
    node {
      name: "MobilenetV3/expanded_conv_6/squeeze_excite/Conv/biases/Read/ReadVariableOp"
      op: "ReadVariableOp"
      input: "MobilenetV3/expanded_conv_6/squeeze_excite/Conv/biases"
      attr {
        key: "_output_shapes"
        value {
          list {
            shape {
              dim {
                size: 32
              }
            }
          }
        }
      }
      attr {
        key: "dtype"
        value {
          type: DT_FLOAT
        }
      }
    }
    node {
      name: "MobilenetV3/expanded_conv_6/project/weights"
      op: "VarHandleOp"
      attr {
        key: "_output_shapes"
        value {
          list {
            shape {
            }
          }
        }
      }
      attr {
        key: "dtype"
        value {
          type: DT_FLOAT
        }
      }
      attr {
        key: "shape"
        value {
          shape {
            dim {
              size: 1
            }
            dim {
              size: 1
            }
            dim {
              size: 120
            }
            dim {
              size: 48
            }
          }
        }
      }
      attr {
        key: "shared_name"
        value {
          s: "MobilenetV3/expanded_conv_6/project/weights"
        }
      }
    }
    node {
      name: "MobilenetV3/expanded_conv_6/project/weights/Read/ReadVariableOp"
      op: "ReadVariableOp"
      input: "MobilenetV3/expanded_conv_6/project/weights"
      attr {
        key: "_output_shapes"
        value {
          list {
            shape {
              dim {
                size: 1
              }
              dim {
                size: 1
              }
              dim {
                size: 120
              }
              dim {
                size: 48
              }
            }
          }
        }
      }
      attr {
        key: "dtype"
        value {
          type: DT_FLOAT
        }
      }
    }
    node {
      name: "MobilenetV3/expanded_conv_7/expand/weights"
      op: "VarHandleOp"
      attr {
        key: "_output_shapes"
        value {
          list {
            shape {
            }
          }
        }
      }
      attr {
        key: "dtype"
        value {
          type: DT_FLOAT
        }
      }
      attr {
        key: "shape"
        value {
          shape {
            dim {
              size: 1
            }
            dim {
              size: 1
            }
            dim {
              size: 48
            }
            dim {
              size: 144
            }
          }
        }
      }
      attr {
        key: "shared_name"
        value {
          s: "MobilenetV3/expanded_conv_7/expand/weights"
        }
      }
    }
    node {
      name: "MobilenetV3/expanded_conv_7/expand/weights/Read/ReadVariableOp"
      op: "ReadVariableOp"
      input: "MobilenetV3/expanded_conv_7/expand/weights"
      attr {
        key: "_output_shapes"
        value {
          list {
            shape {
              dim {
                size: 1
              }
              dim {
                size: 1
              }
              dim {
                size: 48
              }
              dim {
                size: 144
              }
            }
          }
        }
      }
      attr {
        key: "dtype"
        value {
          type: DT_FLOAT
        }
      }
    }
    node {
      name: "MobilenetV3/expanded_conv_3/expand/weights"
      op: "VarHandleOp"
      attr {
        key: "_output_shapes"
        value {
          list {
            shape {
            }
          }
        }
      }
      attr {
        key: "dtype"
        value {
          type: DT_FLOAT
        }
      }
      attr {
        key: "shape"
        value {
          shape {
            dim {
              size: 1
            }
            dim {
              size: 1
            }
            dim {
              size: 24
            }
            dim {
              size: 96
            }
          }
        }
      }
      attr {
        key: "shared_name"
        value {
          s: "MobilenetV3/expanded_conv_3/expand/weights"
        }
      }
    }
    node {
      name: "MobilenetV3/expanded_conv_3/expand/weights/Read/ReadVariableOp"
      op: "ReadVariableOp"
      input: "MobilenetV3/expanded_conv_3/expand/weights"
      attr {
        key: "_output_shapes"
        value {
          list {
            shape {
              dim {
                size: 1
              }
              dim {
                size: 1
              }
              dim {
                size: 24
              }
              dim {
                size: 96
              }
            }
          }
        }
      }
      attr {
        key: "dtype"
        value {
          type: DT_FLOAT
        }
      }
    }
    node {
      name: "MobilenetV3/expanded_conv_4/depthwise/depthwise_weights"
      op: "VarHandleOp"
      attr {
        key: "_output_shapes"
        value {
          list {
            shape {
            }
          }
        }
      }
      attr {
        key: "dtype"
        value {
          type: DT_FLOAT
        }
      }
      attr {
        key: "shape"
        value {
          shape {
            dim {
              size: 5
            }
            dim {
              size: 5
            }
            dim {
              size: 240
            }
            dim {
              size: 1
            }
          }
        }
      }
      attr {
        key: "shared_name"
        value {
          s: "MobilenetV3/expanded_conv_4/depthwise/depthwise_weights"
        }
      }
    }
    node {
      name: "MobilenetV3/expanded_conv_4/depthwise/depthwise_weights/Read/ReadVariableOp"
      op: "ReadVariableOp"
      input: "MobilenetV3/expanded_conv_4/depthwise/depthwise_weights"
      attr {
        key: "_output_shapes"
        value {
          list {
            shape {
              dim {
                size: 5
              }
              dim {
                size: 5
              }
              dim {
                size: 240
              }
              dim {
                size: 1
              }
            }
          }
        }
      }
      attr {
        key: "dtype"
        value {
          type: DT_FLOAT
        }
      }
    }
    node {
      name: "MobilenetV3/expanded_conv_4/squeeze_excite/Conv_1/biases"
      op: "VarHandleOp"
      attr {
        key: "_output_shapes"
        value {
          list {
            shape {
            }
          }
        }
      }
      attr {
        key: "dtype"
        value {
          type: DT_FLOAT
        }
      }
      attr {
        key: "shape"
        value {
          shape {
            dim {
              size: 240
            }
          }
        }
      }
      attr {
        key: "shared_name"
        value {
          s: "MobilenetV3/expanded_conv_4/squeeze_excite/Conv_1/biases"
        }
      }
    }
    node {
      name: "MobilenetV3/expanded_conv_4/squeeze_excite/Conv_1/biases/Read/ReadVariableOp"
      op: "ReadVariableOp"
      input: "MobilenetV3/expanded_conv_4/squeeze_excite/Conv_1/biases"
      attr {
        key: "_output_shapes"
        value {
          list {
            shape {
              dim {
                size: 240
              }
            }
          }
        }
      }
      attr {
        key: "dtype"
        value {
          type: DT_FLOAT
        }
      }
    }
    node {
      name: "MobilenetV3/expanded_conv_6/expand/BatchNorm/moving_variance"
      op: "VarHandleOp"
      attr {
        key: "_output_shapes"
        value {
          list {
            shape {
            }
          }
        }
      }
      attr {
        key: "dtype"
        value {
          type: DT_FLOAT
        }
      }
      attr {
        key: "shape"
        value {
          shape {
            dim {
              size: 120
            }
          }
        }
      }
      attr {
        key: "shared_name"
        value {
          s: "MobilenetV3/expanded_conv_6/expand/BatchNorm/moving_variance"
        }
      }
    }
    node {
      name: "MobilenetV3/expanded_conv_6/expand/BatchNorm/moving_variance/Read/ReadVariableOp"
      op: "ReadVariableOp"
      input: "MobilenetV3/expanded_conv_6/expand/BatchNorm/moving_variance"
      attr {
        key: "_output_shapes"
        value {
          list {
            shape {
              dim {
                size: 120
              }
            }
          }
        }
      }
      attr {
        key: "dtype"
        value {
          type: DT_FLOAT
        }
      }
    }
    node {
      name: "MobilenetV3/expanded_conv_9/expand/BatchNorm/beta"
      op: "VarHandleOp"
      attr {
        key: "_output_shapes"
        value {
          list {
            shape {
            }
          }
        }
      }
      attr {
        key: "dtype"
        value {
          type: DT_FLOAT
        }
      }
      attr {
        key: "shape"
        value {
          shape {
            dim {
              size: 576
            }
          }
        }
      }
      attr {
        key: "shared_name"
        value {
          s: "MobilenetV3/expanded_conv_9/expand/BatchNorm/beta"
        }
      }
    }
    node {
      name: "MobilenetV3/expanded_conv_9/expand/BatchNorm/beta/Read/ReadVariableOp"
      op: "ReadVariableOp"
      input: "MobilenetV3/expanded_conv_9/expand/BatchNorm/beta"
      attr {
        key: "_output_shapes"
        value {
          list {
            shape {
              dim {
                size: 576
              }
            }
          }
        }
      }
      attr {
        key: "dtype"
        value {
          type: DT_FLOAT
        }
      }
    }
    node {
      name: "MobilenetV3/expanded_conv/depthwise/BatchNorm/beta"
      op: "VarHandleOp"
      attr {
        key: "_output_shapes"
        value {
          list {
            shape {
            }
          }
        }
      }
      attr {
        key: "dtype"
        value {
          type: DT_FLOAT
        }
      }
      attr {
        key: "shape"
        value {
          shape {
            dim {
              size: 16
            }
          }
        }
      }
      attr {
        key: "shared_name"
        value {
          s: "MobilenetV3/expanded_conv/depthwise/BatchNorm/beta"
        }
      }
    }
    node {
      name: "MobilenetV3/expanded_conv/depthwise/BatchNorm/beta/Read/ReadVariableOp"
      op: "ReadVariableOp"
      input: "MobilenetV3/expanded_conv/depthwise/BatchNorm/beta"
      attr {
        key: "_output_shapes"
        value {
          list {
            shape {
              dim {
                size: 16
              }
            }
          }
        }
      }
      attr {
        key: "dtype"
        value {
          type: DT_FLOAT
        }
      }
    }
    node {
      name: "MobilenetV3/expanded_conv_7/depthwise/BatchNorm/moving_mean"
      op: "VarHandleOp"
      attr {
        key: "_output_shapes"
        value {
          list {
            shape {
            }
          }
        }
      }
      attr {
        key: "dtype"
        value {
          type: DT_FLOAT
        }
      }
      attr {
        key: "shape"
        value {
          shape {
            dim {
              size: 144
            }
          }
        }
      }
      attr {
        key: "shared_name"
        value {
          s: "MobilenetV3/expanded_conv_7/depthwise/BatchNorm/moving_mean"
        }
      }
    }
    node {
      name: "MobilenetV3/expanded_conv_7/depthwise/BatchNorm/moving_mean/Read/ReadVariableOp"
      op: "ReadVariableOp"
      input: "MobilenetV3/expanded_conv_7/depthwise/BatchNorm/moving_mean"
      attr {
        key: "_output_shapes"
        value {
          list {
            shape {
              dim {
                size: 144
              }
            }
          }
        }
      }
      attr {
        key: "dtype"
        value {
          type: DT_FLOAT
        }
      }
    }
    node {
      name: "MobilenetV3/expanded_conv_8/expand/weights"
      op: "VarHandleOp"
      attr {
        key: "_output_shapes"
        value {
          list {
            shape {
            }
          }
        }
      }
      attr {
        key: "dtype"
        value {
          type: DT_FLOAT
        }
      }
      attr {
        key: "shape"
        value {
          shape {
            dim {
              size: 1
            }
            dim {
              size: 1
            }
            dim {
              size: 48
            }
            dim {
              size: 288
            }
          }
        }
      }
      attr {
        key: "shared_name"
        value {
          s: "MobilenetV3/expanded_conv_8/expand/weights"
        }
      }
    }
    node {
      name: "MobilenetV3/expanded_conv_8/expand/weights/Read/ReadVariableOp"
      op: "ReadVariableOp"
      input: "MobilenetV3/expanded_conv_8/expand/weights"
      attr {
        key: "_output_shapes"
        value {
          list {
            shape {
              dim {
                size: 1
              }
              dim {
                size: 1
              }
              dim {
                size: 48
              }
              dim {
                size: 288
              }
            }
          }
        }
      }
      attr {
        key: "dtype"
        value {
          type: DT_FLOAT
        }
      }
    }
    node {
      name: "MobilenetV3/expanded_conv_8/depthwise/BatchNorm/beta"
      op: "VarHandleOp"
      attr {
        key: "_output_shapes"
        value {
          list {
            shape {
            }
          }
        }
      }
      attr {
        key: "dtype"
        value {
          type: DT_FLOAT
        }
      }
      attr {
        key: "shape"
        value {
          shape {
            dim {
              size: 288
            }
          }
        }
      }
      attr {
        key: "shared_name"
        value {
          s: "MobilenetV3/expanded_conv_8/depthwise/BatchNorm/beta"
        }
      }
    }
    node {
      name: "MobilenetV3/expanded_conv_8/depthwise/BatchNorm/beta/Read/ReadVariableOp"
      op: "ReadVariableOp"
      input: "MobilenetV3/expanded_conv_8/depthwise/BatchNorm/beta"
      attr {
        key: "_output_shapes"
        value {
          list {
            shape {
              dim {
                size: 288
              }
            }
          }
        }
      }
      attr {
        key: "dtype"
        value {
          type: DT_FLOAT
        }
      }
    }
    node {
      name: "MobilenetV3/expanded_conv_8/project/BatchNorm/moving_mean"
      op: "VarHandleOp"
      attr {
        key: "_output_shapes"
        value {
          list {
            shape {
            }
          }
        }
      }
      attr {
        key: "dtype"
        value {
          type: DT_FLOAT
        }
      }
      attr {
        key: "shape"
        value {
          shape {
            dim {
              size: 96
            }
          }
        }
      }
      attr {
        key: "shared_name"
        value {
          s: "MobilenetV3/expanded_conv_8/project/BatchNorm/moving_mean"
        }
      }
    }
    node {
      name: "MobilenetV3/expanded_conv_8/project/BatchNorm/moving_mean/Read/ReadVariableOp"
      op: "ReadVariableOp"
      input: "MobilenetV3/expanded_conv_8/project/BatchNorm/moving_mean"
      attr {
        key: "_output_shapes"
        value {
          list {
            shape {
              dim {
                size: 96
              }
            }
          }
        }
      }
      attr {
        key: "dtype"
        value {
          type: DT_FLOAT
        }
      }
    }
    node {
      name: "MobilenetV3/expanded_conv_9/squeeze_excite/Conv/biases"
      op: "VarHandleOp"
      attr {
        key: "_output_shapes"
        value {
          list {
            shape {
            }
          }
        }
      }
      attr {
        key: "dtype"
        value {
          type: DT_FLOAT
        }
      }
      attr {
        key: "shape"
        value {
          shape {
            dim {
              size: 144
            }
          }
        }
      }
      attr {
        key: "shared_name"
        value {
          s: "MobilenetV3/expanded_conv_9/squeeze_excite/Conv/biases"
        }
      }
    }
    node {
      name: "MobilenetV3/expanded_conv_9/squeeze_excite/Conv/biases/Read/ReadVariableOp"
      op: "ReadVariableOp"
      input: "MobilenetV3/expanded_conv_9/squeeze_excite/Conv/biases"
      attr {
        key: "_output_shapes"
        value {
          list {
            shape {
              dim {
                size: 144
              }
            }
          }
        }
      }
      attr {
        key: "dtype"
        value {
          type: DT_FLOAT
        }
      }
    }
    node {
      name: "MobilenetV3/expanded_conv_10/expand/BatchNorm/gamma"
      op: "VarHandleOp"
      attr {
        key: "_output_shapes"
        value {
          list {
            shape {
            }
          }
        }
      }
      attr {
        key: "dtype"
        value {
          type: DT_FLOAT
        }
      }
      attr {
        key: "shape"
        value {
          shape {
            dim {
              size: 576
            }
          }
        }
      }
      attr {
        key: "shared_name"
        value {
          s: "MobilenetV3/expanded_conv_10/expand/BatchNorm/gamma"
        }
      }
    }
    node {
      name: "MobilenetV3/expanded_conv_10/expand/BatchNorm/gamma/Read/ReadVariableOp"
      op: "ReadVariableOp"
      input: "MobilenetV3/expanded_conv_10/expand/BatchNorm/gamma"
      attr {
        key: "_output_shapes"
        value {
          list {
            shape {
              dim {
                size: 576
              }
            }
          }
        }
      }
      attr {
        key: "dtype"
        value {
          type: DT_FLOAT
        }
      }
    }
    node {
      name: "MobilenetV3/Conv_2/biases"
      op: "VarHandleOp"
      attr {
        key: "_output_shapes"
        value {
          list {
            shape {
            }
          }
        }
      }
      attr {
        key: "dtype"
        value {
          type: DT_FLOAT
        }
      }
      attr {
        key: "shape"
        value {
          shape {
            dim {
              size: 1024
            }
          }
        }
      }
      attr {
        key: "shared_name"
        value {
          s: "MobilenetV3/Conv_2/biases"
        }
      }
    }
    node {
      name: "MobilenetV3/Conv_2/biases/Read/ReadVariableOp"
      op: "ReadVariableOp"
      input: "MobilenetV3/Conv_2/biases"
      attr {
        key: "_output_shapes"
        value {
          list {
            shape {
              dim {
                size: 1024
              }
            }
          }
        }
      }
      attr {
        key: "dtype"
        value {
          type: DT_FLOAT
        }
      }
    }
    node {
      name: "MobilenetV3/expanded_conv_1/expand/BatchNorm/moving_variance"
      op: "VarHandleOp"
      attr {
        key: "_output_shapes"
        value {
          list {
            shape {
            }
          }
        }
      }
      attr {
        key: "dtype"
        value {
          type: DT_FLOAT
        }
      }
      attr {
        key: "shape"
        value {
          shape {
            dim {
              size: 72
            }
          }
        }
      }
      attr {
        key: "shared_name"
        value {
          s: "MobilenetV3/expanded_conv_1/expand/BatchNorm/moving_variance"
        }
      }
    }
    node {
      name: "MobilenetV3/expanded_conv_1/expand/BatchNorm/moving_variance/Read/ReadVariableOp"
      op: "ReadVariableOp"
      input: "MobilenetV3/expanded_conv_1/expand/BatchNorm/moving_variance"
      attr {
        key: "_output_shapes"
        value {
          list {
            shape {
              dim {
                size: 72
              }
            }
          }
        }
      }
      attr {
        key: "dtype"
        value {
          type: DT_FLOAT
        }
      }
    }
    node {
      name: "MobilenetV3/expanded_conv_3/expand/BatchNorm/beta"
      op: "VarHandleOp"
      attr {
        key: "_output_shapes"
        value {
          list {
            shape {
            }
          }
        }
      }
      attr {
        key: "dtype"
        value {
          type: DT_FLOAT
        }
      }
      attr {
        key: "shape"
        value {
          shape {
            dim {
              size: 96
            }
          }
        }
      }
      attr {
        key: "shared_name"
        value {
          s: "MobilenetV3/expanded_conv_3/expand/BatchNorm/beta"
        }
      }
    }
    node {
      name: "MobilenetV3/expanded_conv_3/expand/BatchNorm/beta/Read/ReadVariableOp"
      op: "ReadVariableOp"
      input: "MobilenetV3/expanded_conv_3/expand/BatchNorm/beta"
      attr {
        key: "_output_shapes"
        value {
          list {
            shape {
              dim {
                size: 96
              }
            }
          }
        }
      }
      attr {
        key: "dtype"
        value {
          type: DT_FLOAT
        }
      }
    }
    node {
      name: "MobilenetV3/expanded_conv_3/squeeze_excite/Conv/weights"
      op: "VarHandleOp"
      attr {
        key: "_output_shapes"
        value {
          list {
            shape {
            }
          }
        }
      }
      attr {
        key: "dtype"
        value {
          type: DT_FLOAT
        }
      }
      attr {
        key: "shape"
        value {
          shape {
            dim {
              size: 1
            }
            dim {
              size: 1
            }
            dim {
              size: 96
            }
            dim {
              size: 24
            }
          }
        }
      }
      attr {
        key: "shared_name"
        value {
          s: "MobilenetV3/expanded_conv_3/squeeze_excite/Conv/weights"
        }
      }
    }
    node {
      name: "MobilenetV3/expanded_conv_3/squeeze_excite/Conv/weights/Read/ReadVariableOp"
      op: "ReadVariableOp"
      input: "MobilenetV3/expanded_conv_3/squeeze_excite/Conv/weights"
      attr {
        key: "_output_shapes"
        value {
          list {
            shape {
              dim {
                size: 1
              }
              dim {
                size: 1
              }
              dim {
                size: 96
              }
              dim {
                size: 24
              }
            }
          }
        }
      }
      attr {
        key: "dtype"
        value {
          type: DT_FLOAT
        }
      }
    }
    node {
      name: "MobilenetV3/expanded_conv_5/squeeze_excite/Conv_1/weights"
      op: "VarHandleOp"
      attr {
        key: "_output_shapes"
        value {
          list {
            shape {
            }
          }
        }
      }
      attr {
        key: "dtype"
        value {
          type: DT_FLOAT
        }
      }
      attr {
        key: "shape"
        value {
          shape {
            dim {
              size: 1
            }
            dim {
              size: 1
            }
            dim {
              size: 64
            }
            dim {
              size: 240
            }
          }
        }
      }
      attr {
        key: "shared_name"
        value {
          s: "MobilenetV3/expanded_conv_5/squeeze_excite/Conv_1/weights"
        }
      }
    }
    node {
      name: "MobilenetV3/expanded_conv_5/squeeze_excite/Conv_1/weights/Read/ReadVariableOp"
      op: "ReadVariableOp"
      input: "MobilenetV3/expanded_conv_5/squeeze_excite/Conv_1/weights"
      attr {
        key: "_output_shapes"
        value {
          list {
            shape {
              dim {
                size: 1
              }
              dim {
                size: 1
              }
              dim {
                size: 64
              }
              dim {
                size: 240
              }
            }
          }
        }
      }
      attr {
        key: "dtype"
        value {
          type: DT_FLOAT
        }
      }
    }
    node {
      name: "MobilenetV3/expanded_conv_6/depthwise/BatchNorm/moving_variance"
      op: "VarHandleOp"
      attr {
        key: "_output_shapes"
        value {
          list {
            shape {
            }
          }
        }
      }
      attr {
        key: "dtype"
        value {
          type: DT_FLOAT
        }
      }
      attr {
        key: "shape"
        value {
          shape {
            dim {
              size: 120
            }
          }
        }
      }
      attr {
…
                  name: "MobilenetV3/layer_10"
                  shape {
                    dim {
                      size: -1
                    }
                    dim {
                      size: 7
                    }
                    dim {
                      size: 7
                    }
                    dim {
                      size: 96
                    }
                  }
                  dtype: DT_FLOAT
                }
              }
            }
            fields {
              key: "MobilenetV3/layer_10/depthwise_output"
              value {
                tensor_spec_value {
                  name: "MobilenetV3/layer_10/depthwise_output"
                  shape {
                    dim {
                      size: -1
                    }
                    dim {
                      size: 7
                    }
                    dim {
                      size: 7
                    }
                    dim {
                      size: 288
                    }
                  }
                  dtype: DT_FLOAT
                }
              }
            }
            fields {
              key: "MobilenetV3/layer_10/expansion_output"
              value {
                tensor_spec_value {
                  name: "MobilenetV3/layer_10/expansion_output"
                  shape {
                    dim {
                      size: -1
                    }
                    dim {
                      size: 14
                    }
                    dim {
                      size: 14
                    }
                    dim {
                      size: 288
                    }
                  }
                  dtype: DT_FLOAT
                }
              }
            }
            fields {
              key: "MobilenetV3/layer_10/output"
              value {
                tensor_spec_value {
                  name: "MobilenetV3/layer_10/output"
                  shape {
                    dim {
                      size: -1
                    }
                    dim {
                      size: 7
                    }
                    dim {
                      size: 7
                    }
                    dim {
                      size: 96
                    }
                  }
                  dtype: DT_FLOAT
                }
              }
            }
            fields {
              key: "MobilenetV3/layer_11"
              value {
                tensor_spec_value {
                  name: "MobilenetV3/layer_11"
                  shape {
                    dim {
                      size: -1
                    }
                    dim {
                      size: 7
                    }
                    dim {
                      size: 7
                    }
                    dim {
                      size: 96
                    }
                  }
                  dtype: DT_FLOAT
                }
              }
            }
            fields {
              key: "MobilenetV3/layer_11/depthwise_output"
              value {
                tensor_spec_value {
                  name: "MobilenetV3/layer_11/depthwise_output"
                  shape {
                    dim {
                      size: -1
                    }
                    dim {
                      size: 7
                    }
                    dim {
                      size: 7
                    }
                    dim {
                      size: 576
                    }
                  }
                  dtype: DT_FLOAT
                }
              }
            }
            fields {
              key: "MobilenetV3/layer_11/expansion_output"
              value {
                tensor_spec_value {
                  name: "MobilenetV3/layer_11/expansion_output"
                  shape {
                    dim {
                      size: -1
                    }
                    dim {
                      size: 7
                    }
                    dim {
                      size: 7
                    }
                    dim {
                      size: 576
                    }
                  }
                  dtype: DT_FLOAT
                }
              }
            }
            fields {
              key: "MobilenetV3/layer_11/output"
              value {
                tensor_spec_value {
                  name: "MobilenetV3/layer_11/output"
                  shape {
                    dim {
                      size: -1
                    }
                    dim {
                      size: 7
                    }
                    dim {
                      size: 7
                    }
                    dim {
                      size: 96
                    }
                  }
                  dtype: DT_FLOAT
                }
              }
            }
            fields {
              key: "MobilenetV3/layer_12"
              value {
                tensor_spec_value {
                  name: "MobilenetV3/layer_12"
                  shape {
                    dim {
                      size: -1
                    }
                    dim {
                      size: 7
                    }
                    dim {
                      size: 7
                    }
                    dim {
                      size: 96
                    }
                  }
                  dtype: DT_FLOAT
                }
              }
            }
            fields {
              key: "MobilenetV3/layer_12/depthwise_output"
              value {
                tensor_spec_value {
                  name: "MobilenetV3/layer_12/depthwise_output"
                  shape {
                    dim {
                      size: -1
                    }
                    dim {
                      size: 7
                    }
                    dim {
                      size: 7
                    }
                    dim {
                      size: 576
                    }
                  }
                  dtype: DT_FLOAT
                }
              }
            }
            fields {
              key: "MobilenetV3/layer_12/expansion_output"
              value {
                tensor_spec_value {
                  name: "MobilenetV3/layer_12/expansion_output"
                  shape {
                    dim {
                      size: -1
                    }
                    dim {
                      size: 7
                    }
                    dim {
                      size: 7
                    }
                    dim {
                      size: 576
                    }
                  }
                  dtype: DT_FLOAT
                }
              }
            }
            fields {
              key: "MobilenetV3/layer_12/output"
              value {
                tensor_spec_value {
                  name: "MobilenetV3/layer_12/output"
                  shape {
                    dim {
                      size: -1
                    }
                    dim {
                      size: 7
                    }
                    dim {
                      size: 7
                    }
                    dim {
                      size: 96
                    }
                  }
                  dtype: DT_FLOAT
                }
              }
            }
            fields {
              key: "MobilenetV3/layer_13"
              value {
                tensor_spec_value {
                  name: "MobilenetV3/layer_13"
                  shape {
                    dim {
                      size: -1
                    }
                    dim {
                      size: 7
                    }
                    dim {
                      size: 7
                    }
                    dim {
                      size: 576
                    }
                  }
                  dtype: DT_FLOAT
                }
              }
            }
            fields {
              key: "MobilenetV3/layer_14"
              value {
                tensor_spec_value {
                  name: "MobilenetV3/layer_14"
                  shape {
                    dim {
                      size: -1
                    }
                    dim {
                      size: 1
                    }
                    dim {
                      size: 1
                    }
                    dim {
                      size: 576
                    }
                  }
                  dtype: DT_FLOAT
                }
              }
            }
            fields {
              key: "MobilenetV3/layer_15"
              value {
                tensor_spec_value {
                  name: "MobilenetV3/layer_15"
                  shape {
                    dim {
                      size: -1
                    }
                    dim {
                      size: 1
                    }
                    dim {
                      size: 1
                    }
                    dim {
                      size: 1024
                    }
                  }
                  dtype: DT_FLOAT
                }
              }
            }
            fields {
              key: "MobilenetV3/layer_2"
              value {
                tensor_spec_value {
                  name: "MobilenetV3/layer_2"
                  shape {
                    dim {
                      size: -1
                    }
                    dim {
                      size: 56
                    }
                    dim {
                      size: 56
                    }
                    dim {
                      size: 16
                    }
                  }
                  dtype: DT_FLOAT
                }
              }
            }
            fields {
              key: "MobilenetV3/layer_2/depthwise_output"
              value {
                tensor_spec_value {
                  name: "MobilenetV3/layer_2/depthwise_output"
                  shape {
                    dim {
                      size: -1
                    }
                    dim {
                      size: 56
                    }
                    dim {
                      size: 56
                    }
                    dim {
                      size: 16
                    }
                  }
                  dtype: DT_FLOAT
                }
              }
            }
            fields {
              key: "MobilenetV3/layer_2/output"
              value {
                tensor_spec_value {
                  name: "MobilenetV3/layer_2/output"
                  shape {
                    dim {
                      size: -1
                    }
                    dim {
                      size: 56
                    }
                    dim {
                      size: 56
                    }
                    dim {
                      size: 16
                    }
                  }
                  dtype: DT_FLOAT
                }
              }
            }
            fields {
              key: "MobilenetV3/layer_3"
              value {
                tensor_spec_value {
                  name: "MobilenetV3/layer_3"
                  shape {
                    dim {
                      size: -1
                    }
                    dim {
                      size: 28
                    }
                    dim {
                      size: 28
                    }
                    dim {
                      size: 24
                    }
                  }
                  dtype: DT_FLOAT
                }
              }
            }
            fields {
              key: "MobilenetV3/layer_3/depthwise_output"
              value {
                tensor_spec_value {
                  name: "MobilenetV3/layer_3/depthwise_output"
                  shape {
                    dim {
                      size: -1
                    }
                    dim {
                      size: 28
                    }
                    dim {
                      size: 28
                    }
                    dim {
                      size: 72
                    }
                  }
                  dtype: DT_FLOAT
                }
              }
            }
            fields {
              key: "MobilenetV3/layer_3/expansion_output"
              value {
                tensor_spec_value {
                  name: "MobilenetV3/layer_3/expansion_output"
                  shape {
                    dim {
                      size: -1
                    }
                    dim {
                      size: 56
                    }
                    dim {
                      size: 56
                    }
                    dim {
                      size: 72
                    }
                  }
                  dtype: DT_FLOAT
                }
              }
            }
            fields {
              key: "MobilenetV3/layer_3/output"
              value {
                tensor_spec_value {
                  name: "MobilenetV3/layer_3/output"
                  shape {
                    dim {
                      size: -1
                    }
                    dim {
                      size: 28
                    }
                    dim {
                      size: 28
                    }
                    dim {
                      size: 24
                    }
                  }
                  dtype: DT_FLOAT
                }
              }
            }
            fields {
              key: "MobilenetV3/layer_4"
              value {
                tensor_spec_value {
                  name: "MobilenetV3/layer_4"
                  shape {
                    dim {
                      size: -1
                    }
                    dim {
                      size: 28
                    }
                    dim {
                      size: 28
                    }
                    dim {
                      size: 24
                    }
                  }
                  dtype: DT_FLOAT
                }
              }
            }
            fields {
              key: "MobilenetV3/layer_4/depthwise_output"
              value {
                tensor_spec_value {
                  name: "MobilenetV3/layer_4/depthwise_output"
                  shape {
                    dim {
                      size: -1
                    }
                    dim {
                      size: 28
                    }
                    dim {
                      size: 28
                    }
                    dim {
                      size: 88
                    }
                  }
                  dtype: DT_FLOAT
                }
              }
            }
            fields {
              key: "MobilenetV3/layer_4/expansion_output"
              value {
                tensor_spec_value {
                  name: "MobilenetV3/layer_4/expansion_output"
                  shape {
                    dim {
                      size: -1
                    }
                    dim {
                      size: 28
                    }
                    dim {
                      size: 28
                    }
                    dim {
                      size: 88
                    }
                  }
                  dtype: DT_FLOAT
                }
              }
            }
            fields {
              key: "MobilenetV3/layer_4/output"
              value {
                tensor_spec_value {
                  name: "MobilenetV3/layer_4/output"
                  shape {
                    dim {
                      size: -1
                    }
                    dim {
                      size: 28
                    }
                    dim {
                      size: 28
                    }
                    dim {
                      size: 24
                    }
                  }
                  dtype: DT_FLOAT
                }
              }
            }
            fields {
              key: "MobilenetV3/layer_5"
              value {
                tensor_spec_value {
                  name: "MobilenetV3/layer_5"
                  shape {
                    dim {
                      size: -1
                    }
                    dim {
                      size: 14
                    }
                    dim {
                      size: 14
                    }
                    dim {
                      size: 40
                    }
                  }
                  dtype: DT_FLOAT
                }
              }
            }
            fields {
              key: "MobilenetV3/layer_5/depthwise_output"
              value {
                tensor_spec_value {
                  name: "MobilenetV3/layer_5/depthwise_output"
                  shape {
                    dim {
                      size: -1
                    }
                    dim {
                      size: 14
                    }
                    dim {
                      size: 14
                    }
                    dim {
                      size: 96
                    }
                  }
                  dtype: DT_FLOAT
                }
              }
            }
            fields {
              key: "MobilenetV3/layer_5/expansion_output"
              value {
                tensor_spec_value {
                  name: "MobilenetV3/layer_5/expansion_output"
                  shape {
                    dim {
                      size: -1
                    }
                    dim {
                      size: 28
                    }
                    dim {
                      size: 28
                    }
                    dim {
                      size: 96
                    }
                  }
                  dtype: DT_FLOAT
                }
              }
            }
            fields {
              key: "MobilenetV3/layer_5/output"
              value {
                tensor_spec_value {
                  name: "MobilenetV3/layer_5/output"
                  shape {
                    dim {
                      size: -1
                    }
                    dim {
                      size: 14
                    }
                    dim {
                      size: 14
                    }
                    dim {
                      size: 40
                    }
                  }
                  dtype: DT_FLOAT
                }
              }
            }
            fields {
              key: "MobilenetV3/layer_6"
              value {
                tensor_spec_value {
                  name: "MobilenetV3/layer_6"
                  shape {
                    dim {
                      size: -1
                    }
                    dim {
                      size: 14
                    }
                    dim {
                      size: 14
                    }
                    dim {
                      size: 40
                    }
                  }
                  dtype: DT_FLOAT
                }
              }
            }
            fields {
              key: "MobilenetV3/layer_6/depthwise_output"
              value {
                tensor_spec_value {
                  name: "MobilenetV3/layer_6/depthwise_output"
                  shape {
                    dim {
                      size: -1
                    }
                    dim {
                      size: 14
                    }
                    dim {
                      size: 14
                    }
                    dim {
                      size: 240
                    }
                  }
                  dtype: DT_FLOAT
                }
              }
            }
            fields {
              key: "MobilenetV3/layer_6/expansion_output"
              value {
                tensor_spec_value {
                  name: "MobilenetV3/layer_6/expansion_output"
                  shape {
                    dim {
                      size: -1
                    }
                    dim {
                      size: 14
                    }
                    dim {
                      size: 14
                    }
                    dim {
                      size: 240
                    }
                  }
                  dtype: DT_FLOAT
                }
              }
            }
            fields {
              key: "MobilenetV3/layer_6/output"
              value {
                tensor_spec_value {
                  name: "MobilenetV3/layer_6/output"
                  shape {
                    dim {
                      size: -1
                    }
                    dim {
                      size: 14
                    }
                    dim {
                      size: 14
                    }
                    dim {
                      size: 40
                    }
                  }
                  dtype: DT_FLOAT
                }
              }
            }
            fields {
              key: "MobilenetV3/layer_7"
              value {
                tensor_spec_value {
                  name: "MobilenetV3/layer_7"
                  shape {
                    dim {
                      size: -1
                    }
                    dim {
                      size: 14
                    }
                    dim {
                      size: 14
                    }
                    dim {
                      size: 40
                    }
                  }
                  dtype: DT_FLOAT
                }
              }
            }
            fields {
              key: "MobilenetV3/layer_7/depthwise_output"
              value {
                tensor_spec_value {
                  name: "MobilenetV3/layer_7/depthwise_output"
                  shape {
                    dim {
                      size: -1
                    }
                    dim {
                      size: 14
                    }
                    dim {
                      size: 14
                    }
                    dim {
                      size: 240
                    }
                  }
                  dtype: DT_FLOAT
                }
              }
            }
            fields {
              key: "MobilenetV3/layer_7/expansion_output"
              value {
                tensor_spec_value {
                  name: "MobilenetV3/layer_7/expansion_output"
                  shape {
                    dim {
                      size: -1
                    }
                    dim {
                      size: 14
                    }
                    dim {
                      size: 14
                    }
                    dim {
                      size: 240
                    }
                  }
                  dtype: DT_FLOAT
                }
              }
            }
            fields {
              key: "MobilenetV3/layer_7/output"
              value {
                tensor_spec_value {
                  name: "MobilenetV3/layer_7/output"
                  shape {
                    dim {
                      size: -1
                    }
                    dim {
                      size: 14
                    }
                    dim {
                      size: 14
                    }
                    dim {
                      size: 40
                    }
                  }
                  dtype: DT_FLOAT
                }
              }
            }
            fields {
              key: "MobilenetV3/layer_8"
              value {
                tensor_spec_value {
                  name: "MobilenetV3/layer_8"
                  shape {
                    dim {
                      size: -1
                    }
                    dim {
                      size: 14
                    }
                    dim {
                      size: 14
                    }
                    dim {
                      size: 48
                    }
                  }
                  dtype: DT_FLOAT
                }
              }
            }
            fields {
              key: "MobilenetV3/layer_8/depthwise_output"
              value {
                tensor_spec_value {
                  name: "MobilenetV3/layer_8/depthwise_output"
                  shape {
                    dim {
                      size: -1
                    }
                    dim {
                      size: 14
                    }
                    dim {
                      size: 14
                    }
                    dim {
                      size: 120
                    }
                  }
                  dtype: DT_FLOAT
                }
              }
            }
            fields {
              key: "MobilenetV3/layer_8/expansion_output"
              value {
                tensor_spec_value {
                  name: "MobilenetV3/layer_8/expansion_output"
                  shape {
                    dim {
                      size: -1
                    }
                    dim {
                      size: 14
                    }
                    dim {
                      size: 14
                    }
                    dim {
                      size: 120
                    }
                  }
                  dtype: DT_FLOAT
                }
              }
            }
            fields {
              key: "MobilenetV3/layer_8/output"
              value {
                tensor_spec_value {
                  name: "MobilenetV3/layer_8/output"
                  shape {
                    dim {
                      size: -1
                    }
                    dim {
                      size: 14
                    }
                    dim {
                      size: 14
                    }
                    dim {
                      size: 48
                    }
                  }
                  dtype: DT_FLOAT
                }
              }
            }
            fields {
              key: "MobilenetV3/layer_9"
              value {
                tensor_spec_value {
                  name: "MobilenetV3/layer_9"
                  shape {
                    dim {
                      size: -1
                    }
                    dim {
                      size: 14
                    }
                    dim {
                      size: 14
                    }
                    dim {
                      size: 48
                    }
                  }
                  dtype: DT_FLOAT
                }
              }
            }
            fields {
              key: "MobilenetV3/layer_9/depthwise_output"
              value {
                tensor_spec_value {
                  name: "MobilenetV3/layer_9/depthwise_output"
                  shape {
                    dim {
                      size: -1
                    }
                    dim {
                      size: 14
                    }
                    dim {
                      size: 14
                    }
                    dim {
                      size: 144
                    }
                  }
                  dtype: DT_FLOAT
                }
              }
            }
            fields {
              key: "MobilenetV3/layer_9/expansion_output"
              value {
                tensor_spec_value {
                  name: "MobilenetV3/layer_9/expansion_output"
                  shape {
                    dim {
                      size: -1
                    }
                    dim {
                      size: 14
                    }
                    dim {
                      size: 14
                    }
                    dim {
                      size: 144
                    }
                  }
                  dtype: DT_FLOAT
                }
              }
            }
            fields {
              key: "MobilenetV3/layer_9/output"
              value {
                tensor_spec_value {
                  name: "MobilenetV3/layer_9/output"
                  shape {
                    dim {
                      size: -1
                    }
                    dim {
                      size: 14
                    }
                    dim {
                      size: 14
                    }
                    dim {
                      size: 48
                    }
                  }
                  dtype: DT_FLOAT
                }
              }
            }
            fields {
              key: "default"
              value {
                tensor_spec_value {
                  name: "default"
                  shape {
                    dim {
                      size: -1
                    }
                    dim {
                      size: 1001
                    }
                  }
                  dtype: DT_FLOAT
                }
              }
            }
          }
        }
      }
    }
    concrete_functions {
      key: "__inference_call_fn_11313"
      value {
        bound_inputs: 170
        bound_inputs: 118
        bound_inputs: 20
        bound_inputs: 154
        bound_inputs: 83
        bound_inputs: 41
        bound_inputs: 51
        bound_inputs: 98
        bound_inputs: 21
        bound_inputs: 84
        bound_inputs: 191
        bound_inputs: 140
        bound_inputs: 42
        bound_inputs: 117
        bound_inputs: 178
        bound_inputs: 56
        bound_inputs: 30
        bound_inputs: 85
        bound_inputs: 211
        bound_inputs: 171
        bound_inputs: 22
        bound_inputs: 14
        bound_inputs: 86
        bound_inputs: 106
        bound_inputs: 61
        bound_inputs: 155
        bound_inputs: 192
        bound_inputs: 156
        bound_inputs: 125
        bound_inputs: 49
        bound_inputs: 23
        bound_inputs: 50
        bound_inputs: 87
        bound_inputs: 119
        bound_inputs: 130
        bound_inputs: 149
        bound_inputs: 162
        bound_inputs: 78
        bound_inputs: 62
        bound_inputs: 193
        bound_inputs: 71
        bound_inputs: 131
        bound_inputs: 57
        bound_inputs: 188
        bound_inputs: 63
        bound_inputs: 88
        bound_inputs: 15
        bound_inputs: 34
        bound_inputs: 172
        bound_inputs: 93
        bound_inputs: 6
        bound_inputs: 107
        bound_inputs: 43
        bound_inputs: 157
        bound_inputs: 7
        bound_inputs: 8
        bound_inputs: 200
        bound_inputs: 35
        bound_inputs: 214
        bound_inputs: 108
        bound_inputs: 24
        bound_inputs: 194
        bound_inputs: 46
        bound_inputs: 126
        bound_inputs: 199
        bound_inputs: 79
        bound_inputs: 150
        bound_inputs: 139
        bound_inputs: 163
        bound_inputs: 72
        bound_inputs: 64
        bound_inputs: 203
        bound_inputs: 9
        bound_inputs: 94
        bound_inputs: 73
        bound_inputs: 132
        bound_inputs: 33
        bound_inputs: 141
        bound_inputs: 58
        bound_inputs: 17
        bound_inputs: 179
        bound_inputs: 95
        bound_inputs: 16
        bound_inputs: 212
        bound_inputs: 65
        bound_inputs: 164
        bound_inputs: 204
        bound_inputs: 180
        bound_inputs: 142
        bound_inputs: 133
        bound_inputs: 74
        bound_inputs: 80
        bound_inputs: 181
        bound_inputs: 134
        bound_inputs: 151
        bound_inputs: 47
        bound_inputs: 52
        bound_inputs: 25
        bound_inputs: 89
        bound_inputs: 109
        bound_inputs: 26
        bound_inputs: 195
        bound_inputs: 158
        bound_inputs: 120
        bound_inputs: 182
        bound_inputs: 66
        bound_inputs: 31
        bound_inputs: 44
        bound_inputs: 152
        bound_inputs: 196
        bound_inputs: 96
        bound_inputs: 165
        bound_inputs: 173
        bound_inputs: 166
        bound_inputs: 59
        bound_inputs: 110
        bound_inputs: 174
        bound_inputs: 90
        bound_inputs: 121
        bound_inputs: 81
        bound_inputs: 91
        bound_inputs: 159
        bound_inputs: 67
        bound_inputs: 75
        bound_inputs: 53
        bound_inputs: 92
        bound_inputs: 54
        bound_inputs: 167
        bound_inputs: 205
        bound_inputs: 111
        bound_inputs: 10
        bound_inputs: 122
        bound_inputs: 183
        bound_inputs: 99
        bound_inputs: 197
        bound_inputs: 189
        bound_inputs: 135
        bound_inputs: 190
        bound_inputs: 143
        bound_inputs: 206
        bound_inputs: 198
        bound_inputs: 136
        bound_inputs: 112
        bound_inputs: 11
        bound_inputs: 100
        bound_inputs: 68
        bound_inputs: 184
        bound_inputs: 127
        bound_inputs: 207
        bound_inputs: 123
        bound_inputs: 201
        bound_inputs: 101
        bound_inputs: 45
        bound_inputs: 160
        bound_inputs: 69
        bound_inputs: 146
        bound_inputs: 76
        bound_inputs: 114
        bound_inputs: 175
        bound_inputs: 208
        bound_inputs: 27
        bound_inputs: 102
        bound_inputs: 55
        bound_inputs: 176
        bound_inputs: 82
        bound_inputs: 97
        bound_inputs: 18
        bound_inputs: 177
        bound_inputs: 128
        bound_inputs: 144
        bound_inputs: 215
        bound_inputs: 70
        bound_inputs: 115
        bound_inputs: 28
        bound_inputs: 103
        bound_inputs: 48
        bound_inputs: 153
        bound_inputs: 213
        bound_inputs: 129
        bound_inputs: 29
        bound_inputs: 36
        bound_inputs: 168
        bound_inputs: 37
        bound_inputs: 104
        bound_inputs: 145
        bound_inputs: 169
        bound_inputs: 185
        bound_inputs: 161
        bound_inputs: 12
        bound_inputs: 186
        bound_inputs: 137
        bound_inputs: 40
        bound_inputs: 147
        bound_inputs: 116
        bound_inputs: 60
        bound_inputs: 13
        bound_inputs: 19
        bound_inputs: 38
        bound_inputs: 77
        bound_inputs: 209
        bound_inputs: 202
        bound_inputs: 187
        bound_inputs: 148
        bound_inputs: 113
        bound_inputs: 32
        bound_inputs: 39
        bound_inputs: 138
        bound_inputs: 105
        bound_inputs: 210
        bound_inputs: 124
        canonicalized_input_signature {
          tuple_value {
            values {
              tuple_value {
                values {
                  tensor_spec_value {
                    name: "inputs"
                    shape {
                      dim {
                        size: -1
                      }
                      dim {
                        size: 224
                      }
                      dim {
                        size: 224
                      }
                      dim {
                        size: 3
                      }
                    }
                    dtype: DT_FLOAT
                  }
                }
                values {
                  bool_value: false
                }
                values {
                  bool_value: false
                }
                values {
                  tensor_spec_value {
                    name: "batch_norm_momentum"
                    shape {
                    }
                    dtype: DT_FLOAT
                  }
                }
              }
            }
            values {
              dict_value {
              }
            }
          }
        }
        output_signature {
          tensor_spec_value {
            shape {
              dim {
                size: -1
              }
              dim {
                size: 1001
              }
            }
            dtype: DT_FLOAT
          }
        }
      }
    }
    concrete_functions {
      key: "__inference_call_fn_11789"
      value {
        bound_inputs: 170
        bound_inputs: 118
        bound_inputs: 20
        bound_inputs: 154
        bound_inputs: 83
        bound_inputs: 41
        bound_inputs: 51
        bound_inputs: 98
        bound_inputs: 21
        bound_inputs: 84
        bound_inputs: 191
        bound_inputs: 140
        bound_inputs: 42
        bound_inputs: 117
        bound_inputs: 178
        bound_inputs: 56
        bound_inputs: 30
        bound_inputs: 85
        bound_inputs: 211
        bound_inputs: 171
        bound_inputs: 22
        bound_inputs: 14
        bound_inputs: 86
        bound_inputs: 106
        bound_inputs: 61
        bound_inputs: 155
        bound_inputs: 192
        bound_inputs: 156
        bound_inputs: 125
        bound_inputs: 49
        bound_inputs: 23
        bound_inputs: 50
        bound_inputs: 87
        bound_inputs: 119
        bound_inputs: 130
        bound_inputs: 149
        bound_inputs: 162
        bound_inputs: 78
        bound_inputs: 62
        bound_inputs: 193
        bound_inputs: 71
        bound_inputs: 131
        bound_inputs: 57
        bound_inputs: 188
        bound_inputs: 63
        bound_inputs: 88
        bound_inputs: 15
        bound_inputs: 34
        bound_inputs: 172
        bound_inputs: 93
        bound_inputs: 6
        bound_inputs: 107
        bound_inputs: 43
        bound_inputs: 157
        bound_inputs: 7
        bound_inputs: 8
        bound_inputs: 200
        bound_inputs: 35
        bound_inputs: 214
        bound_inputs: 108
        bound_inputs: 24
        bound_inputs: 194
        bound_inputs: 46
        bound_inputs: 126
        bound_inputs: 199
        bound_inputs: 79
        bound_inputs: 150
        bound_inputs: 139
        bound_inputs: 163
        bound_inputs: 72
        bound_inputs: 64
        bound_inputs: 203
        bound_inputs: 9
        bound_inputs: 94
        bound_inputs: 73
        bound_inputs: 132
        bound_inputs: 33
        bound_inputs: 141
        bound_inputs: 58
        bound_inputs: 17
        bound_inputs: 179
        bound_inputs: 95
        bound_inputs: 16
        bound_inputs: 212
        bound_inputs: 65
        bound_inputs: 164
        bound_inputs: 204
        bound_inputs: 180
        bound_inputs: 142
        bound_inputs: 133
        bound_inputs: 74
        bound_inputs: 80
        bound_inputs: 181
        bound_inputs: 134
        bound_inputs: 151
        bound_inputs: 47
        bound_inputs: 52
        bound_inputs: 25
        bound_inputs: 89
        bound_inputs: 109
        bound_inputs: 26
        bound_inputs: 195
        bound_inputs: 158
        bound_inputs: 120
        bound_inputs: 182
        bound_inputs: 66
        bound_inputs: 31
        bound_inputs: 44
        bound_inputs: 152
        bound_inputs: 196
        bound_inputs: 96
        bound_inputs: 165
        bound_inputs: 173
        bound_inputs: 166
        bound_inputs: 59
        bound_inputs: 110
        bound_inputs: 174
        bound_inputs: 90
        bound_inputs: 121
        bound_inputs: 81
        bound_inputs: 91
        bound_inputs: 159
        bound_inputs: 67
        bound_inputs: 75
        bound_inputs: 53
        bound_inputs: 92
        bound_inputs: 54
        bound_inputs: 167
        bound_inputs: 205
        bound_inputs: 111
        bound_inputs: 10
        bound_inputs: 122
        bound_inputs: 183
        bound_inputs: 99
        bound_inputs: 197
        bound_inputs: 189
        bound_inputs: 135
        bound_inputs: 190
        bound_inputs: 143
        bound_inputs: 206
        bound_inputs: 198
        bound_inputs: 136
        bound_inputs: 112
        bound_inputs: 11
        bound_inputs: 100
        bound_inputs: 68
        bound_inputs: 184
        bound_inputs: 127
        bound_inputs: 207
        bound_inputs: 123
        bound_inputs: 201
        bound_inputs: 101
        bound_inputs: 45
        bound_inputs: 160
        bound_inputs: 69
        bound_inputs: 146
        bound_inputs: 76
        bound_inputs: 114
        bound_inputs: 175
        bound_inputs: 208
        bound_inputs: 27
        bound_inputs: 102
        bound_inputs: 55
        bound_inputs: 176
        bound_inputs: 82
        bound_inputs: 97
        bound_inputs: 18
        bound_inputs: 177
        bound_inputs: 128
        bound_inputs: 144
        bound_inputs: 215
        bound_inputs: 70
        bound_inputs: 115
        bound_inputs: 28
        bound_inputs: 103
        bound_inputs: 48
        bound_inputs: 153
        bound_inputs: 213
        bound_inputs: 129
        bound_inputs: 29
        bound_inputs: 36
        bound_inputs: 168
        bound_inputs: 37
        bound_inputs: 104
        bound_inputs: 145
        bound_inputs: 169
        bound_inputs: 185
        bound_inputs: 161
        bound_inputs: 12
        bound_inputs: 186
        bound_inputs: 137
        bound_inputs: 40
        bound_inputs: 147
        bound_inputs: 116
        bound_inputs: 60
        bound_inputs: 13
        bound_inputs: 19
        bound_inputs: 38
        bound_inputs: 77
        bound_inputs: 209
        bound_inputs: 202
        bound_inputs: 187
        bound_inputs: 148
        bound_inputs: 113
        bound_inputs: 32
        bound_inputs: 39
        bound_inputs: 138
        bound_inputs: 105
        bound_inputs: 210
        bound_inputs: 124
        canonicalized_input_signature {
          tuple_value {
            values {
              tuple_value {
                values {
                  tensor_spec_value {
                    name: "inputs"
                    shape {
                      dim {
                        size: -1
                      }
                      dim {
                        size: 224
                      }
                      dim {
                        size: 224
                      }
                      dim {
                        size: 3
                      }
                    }
                    dtype: DT_FLOAT
                  }
                }
                values {
                  bool_value: true
                }
                values {
                  bool_value: false
                }
                values {
                  tensor_spec_value {
                    name: "batch_norm_momentum"
                    shape {
                    }
                    dtype: DT_FLOAT
                  }
                }
              }
            }
            values {
              dict_value {
              }
            }
          }
        }
        output_signature {
          tensor_spec_value {
            shape {
              dim {
                size: -1
              }
              dim {
                size: 1001
              }
            }
            dtype: DT_FLOAT
          }
        }
      }
    }
    concrete_functions {
      key: "__inference_signature_wrapper_9782"
      value {
        bound_inputs: 170
        bound_inputs: 118
        bound_inputs: 20
        bound_inputs: 154
        bound_inputs: 83
        bound_inputs: 41
        bound_inputs: 51
        bound_inputs: 98
        bound_inputs: 21
        bound_inputs: 84
        bound_inputs: 191
        bound_inputs: 140
        bound_inputs: 42
        bound_inputs: 117
        bound_inputs: 178
        bound_inputs: 56
        bound_inputs: 30
        bound_inputs: 85
        bound_inputs: 211
        bound_inputs: 171
        bound_inputs: 22
        bound_inputs: 14
        bound_inputs: 86
        bound_inputs: 106
        bound_inputs: 61
        bound_inputs: 155
        bound_inputs: 192
        bound_inputs: 156
        bound_inputs: 125
        bound_inputs: 49
        bound_inputs: 23
        bound_inputs: 50
        bound_inputs: 87
        bound_inputs: 119
        bound_inputs: 130
        bound_inputs: 149
        bound_inputs: 162
        bound_inputs: 78
        bound_inputs: 62
        bound_inputs: 193
        bound_inputs: 71
        bound_inputs: 131
        bound_inputs: 57
        bound_inputs: 188
        bound_inputs: 63
        bound_inputs: 88
        bound_inputs: 15
        bound_inputs: 34
        bound_inputs: 172
        bound_inputs: 93
        bound_inputs: 6
        bound_inputs: 107
        bound_inputs: 43
        bound_inputs: 157
        bound_inputs: 7
        bound_inputs: 8
        bound_inputs: 200
        bound_inputs: 35
        bound_inputs: 214
        bound_inputs: 108
        bound_inputs: 24
        bound_inputs: 194
        bound_inputs: 46
        bound_inputs: 126
        bound_inputs: 199
        bound_inputs: 79
        bound_inputs: 150
        bound_inputs: 139
        bound_inputs: 163
        bound_inputs: 72
        bound_inputs: 64
        bound_inputs: 203
        bound_inputs: 9
        bound_inputs: 94
        bound_inputs: 73
        bound_inputs: 132
        bound_inputs: 33
        bound_inputs: 141
        bound_inputs: 58
        bound_inputs: 17
        bound_inputs: 179
        bound_inputs: 95
        bound_inputs: 16
        bound_inputs: 212
        bound_inputs: 65
        bound_inputs: 164
        bound_inputs: 204
        bound_inputs: 180
        bound_inputs: 142
        bound_inputs: 133
        bound_inputs: 74
        bound_inputs: 80
        bound_inputs: 181
        bound_inputs: 134
        bound_inputs: 151
        bound_inputs: 47
        bound_inputs: 52
        bound_inputs: 25
        bound_inputs: 89
        bound_inputs: 109
        bound_inputs: 26
        bound_inputs: 195
        bound_inputs: 158
        bound_inputs: 120
        bound_inputs: 182
        bound_inputs: 66
        bound_inputs: 31
        bound_inputs: 44
        bound_inputs: 152
        bound_inputs: 196
        bound_inputs: 96
        bound_inputs: 165
        bound_inputs: 173
        bound_inputs: 166
        bound_inputs: 59
        bound_inputs: 110
        bound_inputs: 174
        bound_inputs: 90
        bound_inputs: 121
        bound_inputs: 81
        bound_inputs: 91
        bound_inputs: 159
        bound_inputs: 67
        bound_inputs: 75
        bound_inputs: 53
        bound_inputs: 92
        bound_inputs: 54
        bound_inputs: 167
        bound_inputs: 205
        bound_inputs: 111
        bound_inputs: 10
        bound_inputs: 122
        bound_inputs: 183
        bound_inputs: 99
        bound_inputs: 197
        bound_inputs: 189
        bound_inputs: 135
        bound_inputs: 190
        bound_inputs: 143
        bound_inputs: 206
        bound_inputs: 198
        bound_inputs: 136
        bound_inputs: 112
        bound_inputs: 11
        bound_inputs: 100
        bound_inputs: 68
        bound_inputs: 184
        bound_inputs: 127
        bound_inputs: 207
        bound_inputs: 123
        bound_inputs: 201
        bound_inputs: 101
        bound_inputs: 45
        bound_inputs: 160
        bound_inputs: 69
        bound_inputs: 146
        bound_inputs: 76
        bound_inputs: 114
        bound_inputs: 175
        bound_inputs: 208
        bound_inputs: 27
        bound_inputs: 102
        bound_inputs: 55
        bound_inputs: 176
        bound_inputs: 82
        bound_inputs: 97
        bound_inputs: 18
        bound_inputs: 177
        bound_inputs: 128
        bound_inputs: 144
        bound_inputs: 215
        bound_inputs: 70
        bound_inputs: 115
        bound_inputs: 28
        bound_inputs: 103
        bound_inputs: 48
        bound_inputs: 153
        bound_inputs: 213
        bound_inputs: 129
        bound_inputs: 29
        bound_inputs: 36
        bound_inputs: 168
        bound_inputs: 37
        bound_inputs: 104
        bound_inputs: 145
        bound_inputs: 169
        bound_inputs: 185
        bound_inputs: 161
        bound_inputs: 12
        bound_inputs: 186
        bound_inputs: 137
        bound_inputs: 40
        bound_inputs: 147
        bound_inputs: 116
        bound_inputs: 60
        bound_inputs: 13
        bound_inputs: 19
        bound_inputs: 38
        bound_inputs: 77
        bound_inputs: 209
        bound_inputs: 202
        bound_inputs: 187
        bound_inputs: 148
        bound_inputs: 113
        bound_inputs: 32
        bound_inputs: 39
        bound_inputs: 138
        bound_inputs: 105
        bound_inputs: 210
        bound_inputs: 124
        canonicalized_input_signature {
          tuple_value {
            values {
              tuple_value {
              }
            }
            values {
              dict_value {
                fields {
                  key: "inputs"
                  value {
                    tensor_spec_value {
                      name: "inputs"
                      shape {
                        dim {
                          size: -1
                        }
                        dim {
                          size: 224
                        }
                        dim {
                          size: 224
                        }
                        dim {
                          size: 3
                        }
                      }
                      dtype: DT_FLOAT
                    }
                  }
                }
              }
            }
          }
        }
        output_signature {
          dict_value {
            fields {
              key: "logits"
              value {
                tensor_spec_value {
                  name: "logits"
                  shape {
                    dim {
                      size: -1
                    }
                    dim {
                      size: 1001
                    }
                  }
                  dtype: DT_FLOAT
                }
              }
            }
          }
        }
      }
    }
  }
}
